data_util/face_disentangle_3dmm/pretrained_models/32_16/cat_ckpt.pth (torch, 240805 bytes, 6 tensors)

fc1.weight f4 [128, 48]
000000 43 4f 81 3d 3f c9 9b bd c0 43 af bd 84 87 b9 3d
       0.06313946 -0.07606744 -0.08557844 0.09059051
000010 9b 03 f0 3c 8f a2 3e bd 0a bc 16 bd 47 61 20 3c
       0.029298594 -0.046541747 -0.03680042 0.009788818
000020 ce 3c 14 bc 03 ac bf bd 50 89 89 3d 9e 1b 5e 3c
       -0.0090477 -0.093589805 0.067156434 0.013556389
000030 15 10 42 bd 51 2e 78 bc ce c9 c4 bc 9c 3d 7b bd
       -0.04737862 -0.015147761 -0.02402201 -0.061338052
000040 3c aa 64 bc 81 fe bc 3b 92 42 d9 bb 49 2a 9c bc
       -0.013956603 0.005767644 -0.0066302503 -0.019063132
000050 e4 a0 0c bb 87 c5 bc bc 77 b3 47 3d ec e4 97 bc
       -0.0021458203 -0.023043407 0.048755135 -0.018541776
000060 95 5e 88 3c 02 2a 52 3c fa a7 19 3d b5 7c b9 3c
       0.016646663 0.012827398 0.03751371 0.022642473
000070 4b 65 2c 3c b1 03 92 bc e2 43 4d bd 66 7f 11 bc
       0.010522197 -0.017824026 -0.050113566 -0.008880472
000080 03 99 4b bc 02 9f cf bd b7 01 b2 3d 9e b8 23 bd
       -0.012426618 -0.1013775 0.08691733 -0.039970987
000090 bf 3d 55 bd 46 57 03 3e 4c 6c 4f 3d 51 52 d4 3b
       -0.05206084 0.12826261 0.05064039 0.0064795394
0000a0 f3 f2 a5 bc 65 b0 5a 3e bb a1 7c bd b5 b1 1a bd
       -0.020257449 0.21356352 -0.061677676 -0.03776713
0000b0 af 61 30 bd 1e 88 b9 3c ed ee eb 3d 71 58 28 3e
       -0.04306191 0.022647914 0.11520181 0.16439988
0000c0 e6 f8 3a 3c e9 2b 1e 3d 4c ec cd 3d 2b 45 af bb
       0.011411881 0.038616095 0.10054836 -0.0053488216
0000d0 44 26 50 bd bd 24 df 3d f9 2d 0d bd 2c 67 47 3a
       -0.050817743 0.10895679 -0.03446767 0.00076066214
0000e0 69 b6 fe bd fe 31 84 bc 82 5e 7f bd c9 75 0c be
       -0.12437136 -0.01613712 -0.06234599 -0.13716806
0000f0 7d 16 99 3d d4 24 6b be 72 48 20 3e d0 7a b4 3b
       0.074749924 -0.22963268 0.15652636 0.0055078045
000100 59 72 ff bd 6c e5 87 3d 6d d6 65 bb 57 2e a4 bd
       -0.12472982 0.066355556 -0.0035070435 -0.08016651
000110 ca 79 7d 3e 96 64 f4 3d 70 ec 55 bd 50 e9 7c bb
       0.2475349 0.11933248 -0.052227437 -0.0038591214
000120 9c b3 66 3d a1 0f 56 3d ad 45 d5 bd ad 8a 96 3d
       0.056323633 0.052261 -0.1041368 0.07350669
000130 53 0b 83 bd 39 20 2e be 03 a9 61 3d e9 bc 90 3d
       -0.06398644 -0.1700448 0.055092823 0.07067282
000140 13 d9 68 bd c6 8b 12 3e 79 39 16 bd 94 6c d4 3c
       -0.056847643 0.14311132 -0.036675904 0.02593068
000150 45 14 72 bc e2 88 86 3d 4b c8 ee 3c 4c 82 99 bc
       -0.01477534 0.06569077 0.029148242 -0.018738888
000160 51 6f a0 3d d4 71 89 bd 90 e0 be bd 66 ec bd ba
       0.07833732 -0.06711164 -0.09320176 -0.0014490008
000170 0b fe bd 3d f5 9b 1b 3e 47 09 b1 3b 70 11 da bd
       0.092769705 0.15196212 0.0054027173 -0.10647857
000180 7d 9d d2 bc 7e 37 76 bd 97 a8 0b 3e a9 ff 03 be
       -0.025709862 -0.060111515 0.1363853 -0.12890495
000190 52 a0 99 bb 75 39 39 3d 0c 90 1b 3e 98 c2 90 bb
       -0.004688301 0.04522081 0.15191668 -0.0044177286
0001a0 ad cd f9 3d 40 c2 c1 bd c5 e4 81 3d 48 a4 59 bd
       0.12197433 -0.09460878 0.063424625 -0.053135186
0001b0 25 d8 e5 bc 0b e6 2a 3e c1 7e 5c 3d 25 ba a2 3d
       -0.028057167 0.16689317 0.05383182 0.079456605
0001c0 fe 90 a3 bd d0 c5 cb 3d d6 b7 b3 bc 2c f3 6a be
       -0.079866394 0.09949839 -0.021938246 -0.22944325
0001d0 6a e9 32 bd 4e c7 82 3a aa a0 a2 3e 34 65 15 3e
       -0.043679632 0.000997761 0.31763202 0.14589387
0001e0 c0 76 64 bd 0b aa f8 bb 83 5f 17 3c 79 16 46 be
       -0.05577731 -0.00758863 0.00923908 -0.1934451
0001f0 d2 99 81 bc 45 ef be bc 8a 23 9e bd 7c a7 50 3e
       -0.015820418 -0.023307452 -0.07721622 0.2037639
000200 13 f0 bb 3d ab be 13 be dd 84 17 be 98 69 2c bd
       0.0917665 -0.14428203 -0.14796777 -0.04209289
000210 ef 39 e8 bc d7 0a 82 bd 49 2b f6 bd 31 bb 92 3d
       -0.028347937 -0.06349724 -0.12019975 0.0716461
000220 0b af bb 3d 91 4b 42 3d dc 1d 1d be 09 c3 cd bd
       0.09164246 0.047435347 -0.15343422 -0.10046966
000230 38 30 56 bd 7d be d9 bd da fe f9 bc d1 0c fa 3c
       -0.05229208 -0.10632036 -0.03051703 0.03052369
000240 db bb fb 3d d4 57 ad bd 07 ab a4 3d 13 ac a5 3d
       0.1229169 -0.084640175 0.080404334 0.08089461
000250 03 29 3c bc 94 49 a0 3d 82 91 f0 3b 9e bf 63 bc
       -0.011484387 0.07826534 0.0073415646 -0.013900666
000260 b6 6e ba bd 32 87 b0 3c 3b 3b 60 3d dc 0c 8d 3d
       -0.09103148 0.021548841 0.054743987 0.06887218
000270 3b 25 9b bd dd 04 50 bd a1 c9 98 3c 9d 8f 92 bd
       -0.075754605 -0.050785888 0.018650832 -0.07156298
000280 44 4f ec bc 9a c4 7b bd b9 d6 8b 3c 85 d2 97 bd
       -0.02884639 -0.06146679 0.017070161 -0.074132
000290 fa 5a dd 3c 65 2e 8e bd 97 9c 80 bc 98 15 43 bd
       0.02702092 -0.06942443 -0.015699668 -0.047628015
0002a0 ce 8e bd 3c 0c 62 ee 3c a0 05 37 3e 68 2f 4c bd
       0.023139384 0.029099487 0.1787324 -0.049849898
0002b0 d4 38 a0 3d 2d db ee bc f6 4b 60 bd e7 09 18 3d
       0.07823339 -0.029157246 -0.054759942 0.03711882
0002c0 27 92 a0 bd 9b a1 c5 bd 8c d9 a0 3c c2 f3 6d 3c
       -0.07840376 -0.096499644 0.019634984 0.014523448
0002d0 44 8a a4 3d a0 f7 b2 bc 18 2e 02 bd 5e 7c 2c bd
       0.080341846 -0.021846592 -0.03178224 -0.042110793
0002e0 b7 e9 23 bb f7 c0 ee bc 1e 59 a5 3d 20 61 a0 bd
       -0.002501113 -0.029144747 0.080736384 -0.07831025
0002f0 4f de dc bd d3 a6 e7 bd 91 58 25 bc 8e c7 81 3d
       -0.107845895 -0.11311116 -0.010091917 0.0633689
000300 2b 2a c8 3c 26 5f 75 bd f9 a6 ad 3d 95 aa a4 bd
       0.02443417 -0.059905194 0.08479113 -0.080403484
000310 ce eb 89 bc fb 27 ec bd 4a b7 45 bc 00 77 10 bc
       -0.016836073 -0.11531063 -0.012067625 -0.008817434
000320 05 1f d9 3d e6 bb ea 3c 46 21 6e bc 97 82 be bc
       0.1060162 0.02865405 -0.0145343 -0.02325563
000330 ab 25 99 3d 0b ab 1c bd e3 bd 62 3d 2a 76 76 bd
       0.07477888 -0.038249057 0.05535687 -0.060171284
000340 99 dd 87 bd 88 a8 57 3d 30 7e d4 bc c1 22 6e bc
       -0.06634063 0.05265096 -0.025939077 -0.014534653
000350 74 54 86 3d 91 a6 3d bd 3d fb 85 bd 42 29 a3 3c
       0.06559077 -0.04630143 -0.065420605 0.019917134
000360 40 8a 95 3c 62 bd d9 bc bd 23 cd bb 00 08 47 3d
       0.0182544 -0.026579563 -0.006260364 0.048591614
000370 9a b5 a4 3c d6 95 b2 bc f8 5a 0a bd 9e f8 66 bd
       0.020106126 -0.021799963 -0.03377816 -0.056389444
000380 23 1f 58 3d a6 e5 82 3d ee 5c e1 3d 6c 5e 69 3d
       0.05276407 0.06391458 0.11004053 0.056974813
000390 27 22 6f 3d e3 64 05 3d 4f 5e a4 3d 40 6f 7c 3d
       0.05838218 0.032566916 0.080258004 0.061629534
0003a0 ee 73 af bd db c2 1e bd ac c1 c3 3d 8c 17 70 bd
       -0.08567034 -0.038760047 0.09558424 -0.058616206
0003b0 f3 2a a9 3b cd 3c e9 3d 10 f4 96 bd 26 f9 86 3d
       0.0051625906 0.1138855 -0.0737077 0.0659049
0003c0 73 96 46 3d 57 fc 93 bd 61 ba 3e 3e 50 5f 87 3c
       0.048483323 -0.072258644 0.18625785 0.01652494
0003d0 54 52 72 3d 33 38 5b 3d 01 53 a6 3d 24 e6 6b bd
       0.059160545 0.053520393 0.081213005 -0.057592526
0003e0 21 4f a8 3c 7c eb a0 3d ae ab 97 bd bf 61 54 3d
       0.020545544 0.07857415 -0.07405792 0.05185103
0003f0 42 5d 6b 3b 16 d0 c9 bc d3 b9 0d 3e de 57 0b bd
       0.003591374 -0.024635356 0.13840418 -0.034019344

fc1.bias f4 [128]
000000 85 05 99 3d f5 22 e1 be 3d f1 3e bd cc 3c d8 3c
       0.07471756 -0.43971983 -0.04661678 0.026396178
000010 22 b6 0b 3d e9 fc 37 3e 3a 7d ed 3d b6 50 a8 bd
       0.034109242 0.17967571 0.11596151 -0.082185194
000020 cb 70 69 be 1d eb 1b 3c ca c1 39 bf 80 27 ac 3d
       -0.22796933 0.009516505 -0.72561324 0.084059715
000030 70 2e 2e bc d5 b1 23 3e ae 32 29 be f7 2b 64 bb
       -0.010631189 0.15985806 -0.16523239 -0.0034816244
000040 03 06 3e be 7b 02 3b bd c7 93 39 3d f4 2c 99 3d
       -0.18556981 -0.045656662 0.045306947 0.07479277
000050 26 d2 e0 3d c9 3d 9d bc ed 24 77 3d 87 f5 e3 bc
       0.10977583 -0.0191945 0.06033795 -0.027827037
000060 77 0b 6f 3d e0 01 c6 3d 0d 72 55 3d 15 db 12 be
       0.058360543 0.096683264 0.05211072 -0.14341386
000070 ca 86 a7 bd 3b 41 3e 3e f4 30 2f 3d 92 8e 9e 3d
       -0.08180006 0.18579571 0.042771295 0.07742037
000080 0e 4d 07 3d 2f f0 ab bd 1e 1d 09 3d 5f d8 28 bd
       0.03303247 -0.08395421 0.033475034 -0.041221973
000090 86 f4 88 bf c4 aa 89 bd b7 31 d5 3d 9d 74 0f ba
       -1.0699623 -0.06722024 0.10409873 -0.0005472394
0000a0 a7 fb 03 bf 62 21 60 bc 8c 67 b3 bc 04 a4 06 be
       -0.51555866 -0.013679834 -0.021899961 -0.13148504
0000b0 a7 de 2b bd 7e f5 98 ba 77 ae 67 3c 36 7f 90 3d
       -0.041960385 -0.0011669842 0.014140717 0.070555136
0000c0 33 fc f3 be ad 8f 98 3d b0 42 fd bc b4 5c 10 3c
       -0.4765335 0.07449279 -0.030915588 0.008811165
0000d0 7a 02 36 3d 3a 55 10 3c de bd 43 3d 5c 6b 0a 3c
       0.044435956 0.008809382 0.047788493 0.008448448
0000e0 94 5c 18 3d 41 d5 f6 3d e6 49 48 bc bd 9f df be
       0.037197664 0.12052394 -0.01222465 -0.43676558
0000f0 6e 34 bd bd 15 21 a8 3d 17 90 7c bd c3 78 04 bd
       -0.09238516 0.08209435 -0.061660852 -0.03234173
000100 f8 76 17 3d f6 9b 9b 3d 26 d2 2a bd 70 26 10 bd
       0.03697869 0.075981066 -0.04170432 -0.035192907
000110 2a ee f3 3d ad 6a 98 3c e8 78 9a bd cf 93 ba bd
       0.119106606 0.018605554 -0.07542592 -0.091102235
000120 59 7b 5b 3d 77 d7 70 3c 24 ff 62 bd 77 50 8a 3b
       0.05358443 0.014699808 -0.055419102 0.004221018
000130 20 68 d1 3c a6 1e fd bd 97 14 7c 3d b1 3b ad 3c
       0.025562346 -0.12359361 0.061543074 0.021146627
000140 9d f8 21 bd a0 15 9e bd 1b c3 81 3c a8 75 3a 3d
       -0.039543737 -0.077189684 0.015840104 0.045522362
000150 31 a6 7b 3d 35 6b c8 3d c9 e8 fc bd 1d fd 6c 3d
       0.06143779 0.09786073 -0.12349088 0.057858575
000160 83 2e 8a 3d 7f fc e9 be ce 79 45 be 97 e9 2e be
       0.06747153 -0.45700452 -0.19284746 -0.17081295
000170 e7 79 06 3d 01 d3 ab 3d 69 9b 18 3d e9 e2 1b bb
       0.0328311 0.08389855 0.037257586 -0.0023786372
000180 1b 6d e9 3c ca a2 ea 3d 94 88 0f bc 73 c8 72 bd
       0.028494408 0.11456831 -0.00876059 -0.059273195
000190 4e 33 46 bd a4 73 07 3e 3f 96 18 be ce 0a 01 3e
       -0.04838877 0.13227707 -0.14901064 0.12601778
0001a0 a5 90 92 be 31 e8 5d bd 04 d5 2d bb 4c d6 32 bd
       -0.2862598 -0.054176513 -0.0026524672 -0.0436614
0001b0 81 bd be 3c 56 47 a6 bd df 38 36 bd 0b f9 87 3c
       0.023283722 -0.08119075 -0.04448783 0.016598245
0001c0 1b 9c 24 bc 5c 52 48 bd 04 8f 27 3d ce eb b0 bd
       -0.010046984 -0.04890667 0.040907875 -0.08638726
0001d0 f3 3b 4d bb 7e 0b 33 bc 72 4a 94 bc aa c2 73 bd
       -0.003131625 -0.010928033 -0.018101905 -0.059511818
0001e0 7b b1 8e be 52 35 16 be c4 e5 2a be 76 07 5a 3d
       -0.27869782 -0.14668778 -0.16689211 0.05322977
0001f0 d4 fc c3 be 8b b7 96 be 29 be dd 3d 03 0b c4 3d
       -0.3827883 -0.29436907 0.10827286 0.09572413

fc2.weight f4 [256, 128]
000000 57 ae 3f 3e 93 2b 08 3c b7 69 d6 b9 b4 aa 7d bd
       0.18718849 0.00831117 -0.00040896024 -0.061930373
000010 03 6c 28 3e ea 56 c8 3c 10 b9 c7 3d bb e3 e5 be
       0.16447453 0.024455506 0.09752095 -0.44900307
000020 03 33 f8 3c 66 e5 d6 3d 11 b5 b8 3e ce 94 29 bf
       0.030297762 0.10492973 0.36075643 -0.6624268
000030 21 47 e1 bd 7b 54 23 3e e8 32 f8 3d 9f 43 1f 3d
       -0.10999895 0.15950195 0.121190846 0.038882848
000040 ba d7 ab 3b 61 ad 19 3f 07 9a 8c 3c f3 ad 5b 3c
       0.0052442225 0.6003018 0.01716329 0.013408172
000050 2d 4e b5 bc 64 d2 d3 bd dd 19 1a bd a5 1b 3a 3a
       -0.022132004 -0.10342863 -0.03762232 0.0007099456
000060 c7 80 f5 bb 96 c8 30 bf 5a e1 95 be d1 24 5b 3e
       -0.007492158 -0.6905607 -0.29273492 0.21400763
000070 17 9d 0c bd c1 5f be bd 0b 33 e3 3c 6d 4a ce bd
       -0.0343295 -0.09295607 0.0277343 -0.10072789
000080 c3 0e 8a 3d 66 9f 1e 3c c2 cc 9a bc c3 8a 5f be
       0.06741097 0.009681558 -0.018896464 -0.21830277
000090 12 b3 9d be 43 bb ac 3c 0d 55 f9 bc 86 2d eb 3c
       -0.30800682 0.021085387 -0.030436063 0.02870823
0000a0 7b e0 17 bc 02 8c ef 3d a1 fb 32 3d 5f 41 4a be
       -0.009269829 0.11696626 0.043697003 -0.197515
0000b0 22 c1 87 3d 87 96 1e bc bc c8 36 bb c9 59 2f bd
       0.06628634 -0.009679443 -0.0027890643 -0.042810235
0000c0 6d fa a4 3d 5b 29 13 3e 98 54 9d be 5b 32 8c bd
       0.080555774 0.14371245 -0.30728602 -0.06845542
0000d0 a0 e2 0b bd 7d 26 e5 bd 13 f2 93 bd 8d a3 1a 3e
       -0.034151673 -0.11188982 -0.07223906 0.15101452
0000e0 3a 37 f1 bd 70 6a 30 3c b9 0c 64 be 57 e7 78 bd
       -0.11778112 0.010767564 -0.22270478 -0.060767498
0000f0 a7 2a 7f bd e0 17 80 bd a7 28 20 bf d7 2a d6 bd
       -0.062296536 -0.06254554 -0.6256203 -0.1045739
000100 54 0b a2 3d c6 25 db 3d 83 0f 0e bf 05 a3 51 bc
       0.07912317 0.10700564 -0.5549242 -0.012795215
000110 a2 7a fd bc 19 70 b2 bd 8d 0a 1f 3e 4d ed a2 bc
       -0.030942265 -0.08712787 0.15531369 -0.019888544
000120 c1 e3 24 3c 75 2b a4 be 91 99 97 bb b9 69 05 bc
       0.010064066 -0.32064405 -0.004626461 -0.008142882
000130 9a 91 98 bd 45 5b 16 3d 22 1f d0 bd ef 64 43 3e
       -0.07449646 0.036708135 -0.10162188 0.19081472
000140 4e 5f 78 bb 8b 37 92 be 25 a5 9b 3d 23 7a 3c 3e
       -0.0037898603 -0.28558 0.07599858 0.18405966
000150 8a d8 86 bc c5 db 26 bf 77 cb 56 3e 2b ea 4d 3d
       -0.016460676 -0.6517909 0.20976053 0.050272148
000160 77 a6 95 bc 85 99 d1 bd f2 c1 93 bd 1f 1a 93 bc
       -0.018267853 -0.1023436 -0.072147265 -0.017956791
000170 b6 0b 96 be b8 7f 41 3d c4 f8 71 3d 76 44 c4 be
       -0.2930581 0.047240943 0.059075132 -0.38333482
000180 de 40 23 3e e1 6a 7a 3e eb aa 20 3d 18 09 0d be
       0.15942714 0.24454834 0.0392255 -0.13773
000190 3c ff 0a 3f 4a a5 2f be e8 5c 6d 3d c3 cf 2b 3b
       0.54295707 -0.17152897 0.05794993 0.0026216365
0001a0 52 67 82 3a 18 74 bd be 3d 54 17 bf bf 76 ef bc
       0.0009949005 -0.37002635 -0.5911291 -0.029231427
0001b0 c6 db bb 3d 70 4d d4 3e ad 09 65 3e 8b 9a 7b bd
       0.09172778 0.4146533 0.22366972 -0.06142668
0001c0 19 45 d3 3d d5 37 5b bd d4 86 7b 3d b7 45 ba 3c
       0.10315914 -0.053520042 0.06140788 0.02273832
0001d0 59 cc 60 be 30 67 83 bd bd ed 01 3e f3 32 3b bc
       -0.21952952 -0.06416166 0.12688346 -0.011425721
0001e0 c3 33 8c bd ac 48 7e bd ca 72 01 3d 69 89 1c 3d
       -0.0684581 -0.062081024 0.031603612 0.038216982
0001f0 da 3e 0b 3d f0 b8 09 ba a8 72 24 3e c8 96 c9 3c
       0.033995487 -0.0005253693 0.16059363 0.02460803
000200 58 69 5d bd e2 5b c9 bc 4b 66 4b bc f5 b8 4f bd
       -0.05405554 -0.024579946 -0.012414525 -0.0507135
000210 33 60 cd bc 70 db 55 bc f4 74 19 bd 17 e7 d2 bc
       -0.025070285 -0.013052806 -0.03746505 -0.025744958
000220 8e 71 11 bd 7f c6 fd bc 1d de 8d bc 12 da dc bc
       -0.035508685 -0.03097844 -0.017317826 -0.026959453
000230 86 c4 7b 3a 34 06 45 bc 8d 56 fc bc 0f c7 12 bd
       0.00096041744 -0.012025405 -0.03080299 -0.03583437
000240 ca 80 4d bc a2 38 1b bd b1 32 9b bc ba fc 85 bd
       -0.012542913 -0.037895806 -0.01894507 -0.065423444
000250 68 c8 21 bd 99 9f e1 bb ce 07 7b bd 47 eb 39 bc
       -0.039497763 -0.0068854806 -0.06128674 -0.011347598
000260 69 0c cf bc 04 cd b6 bc 80 6f 6a bd 3e 0c 36 bc
       -0.025274472 -0.022314556 -0.05723524 -0.011111317
000270 38 f3 a6 bc 1b bd 67 bd 2f 8f 0b bd a8 11 4a bd
       -0.020379648 -0.05657683 -0.034072097 -0.049333245
000280 41 cb 02 bd df 89 ae bc 29 14 15 bd 98 56 ca 3b
       -0.03193212 -0.021305976 -0.03639618 0.0061748736
000290 5a 9c 36 3c 74 6f ca bc a6 fc 42 bd 82 fc 1d bd
       0.011145676 -0.024711348 -0.047604226 -0.03857089
0002a0 8f bc 43 bc 28 c5 35 bd 88 d2 64 bc 00 1b b9 bc
       -0.011946811 -0.044377476 -0.01396621 -0.022595882
0002b0 85 47 31 bb 27 de 20 bc af 56 f9 bc 9c 35 18 bc
       -0.0027050686 -0.00981859 -0.030436842 -0.009290125
0002c0 24 e9 b6 bb 6d a7 2d bd c7 91 8b bc 75 15 76 bc
       -0.0055819917 -0.042395998 -0.017037285 -0.015019764
0002d0 16 07 73 bd 8d ab b2 3b 1b f7 b0 bb b1 8f 1c bd
       -0.05933293 0.0054525794 -0.005400551 -0.038222972
0002e0 17 7e 0c bd 97 fd 5e bd 77 08 49 bc 11 91 56 bd
       -0.034299936 -0.05444106 -0.012270085 -0.05238444
0002f0 b5 77 6d bb 37 7b 8d bc ec fa 29 bc 6f 58 1a bd
       -0.003623468 -0.017270667 -0.010374766 -0.037681993
000300 ac 62 29 bc 80 f2 21 bd 85 90 29 bb dc 7a be bc
       -0.010338467 -0.039537907 -0.0025873494 -0.023251943
000310 b9 66 ab bc 26 1c bd bc 4e aa 3d bd ca a0 68 bb
       -0.020923005 -0.023084711 -0.046304993 -0.0035496228
000320 d5 f5 5c bd d4 f0 39 bc 89 4e ba bc 28 0d 1e bd
       -0.05394538 -0.011348922 -0.022742527 -0.038586766
000330 80 e3 f4 bc 85 4b 3c bb ad 91 37 bd 3f c5 49 bd
       -0.029893637 -0.0028731537 -0.04481666 -0.049260374
000340 ae 07 d2 bb b8 d3 07 bd a0 aa d2 bc d6 b5 3f bd
       -0.006409607 -0.033160895 -0.025716126 -0.04680427
000350 29 a0 29 bd 14 5f 20 bd ad e3 f3 3a 47 c3 76 bd
       -0.041412506 -0.039153174 0.0018607281 -0.060244825
000360 4b 9e 1f bd c5 b0 6e bc 45 fe 18 bb 6c 10 fa bb
       -0.03896932 -0.014568512 -0.0023344916 -0.007631352
000370 9d 9a a2 3a db ee 32 bd 8b 15 97 bc a3 46 90 3c
       0.0012405697 -0.04368482 -0.01844289 0.017611807
000380 79 9a 03 bd 35 58 b7 bc 94 c8 1d ba 20 bb b6 bc
       -0.03212974 -0.022380928 -0.0006018963 -0.022306025
000390 13 d9 99 bc 5e d5 21 bd 08 02 71 bc 39 0a 1d bd
       -0.018780267 -0.039510123 -0.014709957 -0.038339827
0003a0 f8 10 44 bd 4e d7 8d bc 84 21 23 bd 83 59 89 bc
       -0.047867745 -0.01731458 -0.039826885 -0.016766315
0003b0 48 ce 01 bd 96 e7 14 bd 09 49 c6 bc e2 ca 2f bd
       -0.031690866 -0.03635367 -0.024204748 -0.042918094
0003c0 ee 5f 3f bd 63 88 70 3c 2a 64 a9 bc 0d 9a 4b bc
       -0.046722345 0.014680955 -0.020677645 -0.012426865
0003d0 88 87 35 bd 25 9b 39 bc 17 5d 43 bd ee 39 f9 bc
       -0.044318706 -0.011328493 -0.0476962 -0.03042313
0003e0 5e 8f fa bc 35 af 75 bc b1 a5 01 bd 6c 69 e1 bc
       -0.03058594 -0.014995386 -0.031652156 -0.02751609
0003f0 f6 91 3d bd cf 95 3c bd e2 2d 6a bd ad 6c b1 bc
       -0.046281777 -0.046041306 -0.057172664 -0.021658266

fc2.bias f4 [256]
000000 a8 58 97 3e c7 2e 70 bd 8e 2e 13 3b a7 2b 1b bd
       0.29559827 -0.05863836 0.0022458169 -0.037883427
000010 0d 8d b2 bd 44 d4 8a bc 7d 2a 9c 3d 87 64 f3 3d
       -0.087183096 -0.01694692 0.076252915 0.118844084
000020 6b 6b c2 bc de 56 bf 3d 09 46 72 bc 6f 1c 40 3e
       -0.023732862 0.093427405 -0.0147872055 0.18760847
000030 b1 fa e7 bb 6c e5 6b bc 34 21 18 bd b8 5b ad bc
       -0.0070794453 -0.01439796 -0.03714104 -0.021161899
000040 49 08 e3 3d 69 09 3b 3d bd a4 4c 3c 07 87 63 3c
       0.11085565 0.04566327 0.012490449 0.0138871735
000050 45 46 1c bc 8c 07 ba bb 29 d7 b9 3d 3b 93 9b 3d
       -0.009538238 -0.005677169 0.09074242 0.07596441
000060 9d 75 cb 3d 29 30 e8 bd 4f 9b a0 3e 36 84 08 bc
       0.09934542 -0.11337311 0.3136849 -0.008332303
000070 4e 8d 00 3e 4a 92 60 3d b9 f2 79 bc 0d 89 75 bc
       0.12553903 0.054827012 -0.0152556235 -0.014986289
000080 ca 4c 47 3a db c3 dd bc fb 35 11 bc aa 98 9c bc
       0.000760269 -0.02707093 -0.008862968 -0.019115765
000090 d3 0e 34 3b 19 41 62 bd ce 54 09 3c 35 a5 ab 3c
       0.0027474656 -0.055237863 0.008382035 0.0209528
0000a0 4d 74 bf bd e9 ad 0d bc 19 6f 7e 3d d0 38 8b 3d
       -0.093483545 -0.00864742 0.06211767 0.067979455
0000b0 bc 1d 5c bd a3 8e c2 3d 5a e5 ff bb 78 14 e7 3c
       -0.053739294 0.09499862 -0.0078093233 0.028208002
0000c0 35 63 81 3c db a9 b8 bb 70 ce 0e bd 7d 20 2c bd
       0.015794376 -0.0056354827 -0.034864843 -0.04202317
0000d0 e0 23 78 3d 4c 51 88 bc 07 f1 79 bd 35 51 32 bc
       0.060581088 -0.016640328 -0.061020877 -0.010883619
0000e0 d4 59 fe 3c 56 3e 8c bc 46 5e 4a bc 99 c6 4e 3d
       0.031048693 -0.017119568 -0.012351578 0.050482366
0000f0 9e e1 04 3d 02 62 ee 3d a2 6f 90 3d e8 61 1c bd
       0.032441728 0.11639787 0.07052542 -0.03817931
000100 72 96 7d bc 8b 08 8d 3e fd 61 85 bb 9e 97 22 be
       -0.0154777635 0.2754558 -0.004070519 -0.1587815
000110 97 d3 45 bc 32 7b 84 bb 35 60 31 be 92 32 ca 39
       -0.012074373 -0.0040430063 -0.17321856 0.0003856612
000120 d5 ff 5f 3d ed 2d 92 3d 10 52 af bb 6c e9 0b 3c
       0.05468734 0.07137666 -0.005350359 0.008539539
000130 78 e5 52 bb c9 ed 85 3b cb fb ad 3c 15 35 62 3c
       -0.003218023 0.004087184 0.021238228 0.013806601
000140 d1 f0 1d 3c 62 3e 1d bc 35 2f 5e bb b7 1f 12 bc
       0.009639935 -0.009597393 -0.003390265 -0.008918694
000150 5b 16 33 3d f3 64 27 3d ae 95 1b 3c 82 54 cc ba
       0.04372249 0.040867757 0.009496136 -0.001558915
000160 ff 63 c5 bc 8e fb dc bc 45 dd 28 bc 43 1f 82 bc
       -0.024095533 -0.02697542 -0.010306661 -0.015884047
000170 71 55 0b 3d 10 0e e9 3c 8c e9 41 3d b2 91 b2 3a
       0.03401703 0.028449088 0.04734187 0.0013623743
000180 96 c3 a1 3e 8f 02 f9 3c f2 4c d3 bc bf d4 fb bb
       0.31594533 0.030396728 -0.025793526 -0.0076852734
000190 4f 3a bd bc e4 29 c5 3c 3b d8 9b bb 2f 13 3a bd
       -0.023099093 0.024067827 -0.0047560013 -0.04542845
0001a0 5a aa 46 bd 19 f3 3c 3c b3 9b 0a bd ea 10 08 3d
       -0.048502304 0.011532568 -0.033839893 0.033219256
0001b0 05 91 ed 3b da 06 f6 3b a8 d0 14 bd 23 a7 47 bc
       0.0072499537 0.007508141 -0.036331803 -0.012185845
0001c0 69 3d d6 3e 68 c1 ba bd 75 35 52 bd de e5 71 bc
       0.41843727 -0.091189206 -0.05132051 -0.014764277
0001d0 01 c2 9c 3d 89 32 05 bc e9 22 61 3d 32 d7 30 3c
       0.07654191 -0.008129724 0.054964934 0.010793494
0001e0 37 56 23 bd ad d8 77 bd 07 f5 a0 3d 75 65 7a bc
       -0.039877143 -0.060509373 0.07859235 -0.015282978
0001f0 f2 5f a7 bc 8e 12 d4 bb bd 76 0a bb 6d fc de bb
       -0.020431492 -0.0064719385 -0.0021127902 -0.006804994
000200 8b d1 8c 3c 01 79 89 3b 91 e6 9c bd 85 0c 3e bd
       0.017189762 0.004195333 -0.076611646 -0.04639866
000210 84 fa 92 3d 49 74 67 3c c6 6c e2 bc c1 b9 b6 bd
       0.07176688 0.014126846 -0.027639758 -0.089221485
000220 3d 1b 9f 3c e7 be 46 3c 9f 30 ba 3c 3a 41 20 3c
       0.019422168 0.012130476 0.022728262 0.009781176
000230 3b 05 2c 3d 4c 75 14 be ff a2 2e bd d9 ec 80 bc
       0.041997176 -0.1449787 -0.042635914 -0.015737938
000240 c5 e7 90 bd 94 5a 8e bd e8 b4 8f bc 53 50 21 3d
       -0.070754565 -0.0695087 -0.017542318 0.039383244
000250 72 43 b2 bc 6c ba 94 3d 2c 96 54 bd 15 50 ca 3c
       -0.021760676 0.0726212 -0.051901028 0.02469639
000260 a9 c1 a7 bd 66 33 e0 bd 71 4c b5 bc 13 88 06 ba
       -0.081912346 -0.109473035 -0.022131177 -0.0005131971
000270 76 e4 b3 be 46 9a 41 bc 40 23 97 3d 3b a6 34 3c
       -0.3513524 -0.011816567 0.0737977 0.011025961
000280 b9 b7 7f bc b2 f5 0d 3e 68 ee 09 bc e5 32 2c bd
       -0.015607768 0.13863257 -0.008418657 -0.042040724
000290 25 8a 45 3d be 53 c6 3d 54 c4 c9 3c 17 e4 85 3d
       0.048227448 0.09683941 0.02462975 0.06537645
0002a0 aa f3 1d bd 92 17 7d bd 5f 17 20 3c f8 4c 39 bc
       -0.038562454 -0.061790057 0.009771197 -0.011309855
0002b0 ce b0 af 3d 54 28 aa bc 34 fd 5a bb ac 7a d2 3c
       0.08578645 -0.020771183 -0.003341508 0.02569326
0002c0 d9 e0 cc bb bd 88 0c 3d a8 99 7b 3c f5 5d 53 bc
       -0.00625239 0.03431009 0.015356459 -0.012900819
0002d0 6e ed a0 bc ea 32 18 3d 45 b9 72 3d 88 8b 85 bc
       -0.019644465 0.03715793 0.059258718 -0.016301885
0002e0 22 7d 4e 3d 3b dd d5 3d 1e 2c 21 3d 96 03 1c b9
       0.050412305 0.10442587 0.039348714 -0.00014878655
0002f0 db e5 55 bc 7c 7d e5 3c 48 74 8e bc 70 93 d4 bc
       -0.01305529 0.028013937 -0.017389432 -0.02594921
000300 7a 3a 3c bb 44 fc d2 3b d4 3b 31 3e bf f2 2c bd
       -0.0028721378 0.006438764 0.17307979 -0.04222369
000310 61 94 bd bc 1e ee 9f 3d 5d 43 b8 bc a6 92 64 3b
       -0.023142042 0.07809089 -0.022493059 0.0034877448
000320 08 84 8e 3b 1c d9 bc 3d 1c 16 24 3d 2b 01 2c 3d
       0.0043492354 0.09221098 0.040060148 0.0419933
000330 26 e8 a7 3b 9b 82 44 3d 88 cf 78 bc 73 a0 75 3c
       0.00512411 0.047976118 -0.015186198 0.014991867
000340 53 42 7e 3d 19 d3 03 bd bd 7e 8b 3b 61 6c 13 bd
       0.06207497 -0.03218374 0.0042570517 -0.03599203
000350 39 a7 b6 bc 96 61 25 3c 66 39 8e 3d 2f 9b 50 bc
       -0.022296535 0.010094067 0.06944542 -0.012732311
000360 ae 16 77 3d b4 51 a2 bb 51 4a 92 3a 80 77 41 3d
       0.060324363 -0.0049535874 0.0011161064 0.047233105
000370 52 33 31 3d 04 09 9e bc c8 ef 47 3e ac 46 98 3d
       0.043261833 -0.019291408 0.19525063 0.074353546
000380 9b 6c 4c bd ba 00 21 3e 9d 3b b8 bc c4 f2 bd bc
       -0.04990826 0.15722933 -0.022489363 -0.023187049
000390 93 39 52 be 37 25 10 bb ea ea 09 3e 5b 73 66 bc
       -0.20529775 -0.0021994838 0.13468519 -0.014065589
0003a0 70 d8 6c bd 5d d9 5c bd a3 0e df bc 1a 14 77 bc
       -0.0578236 -0.05391823 -0.027228659 -0.015080476
0003b0 d2 52 04 3e 8f a3 05 bb 11 ed 9f bc 9a 18 26 3c
       0.12922218 -0.0020391678 -0.019522222 0.010137701
0003c0 65 7c 29 bc cd 07 f6 bb 4b 64 00 bb a0 7f 08 bc
       -0.010344599 -0.007508254 -0.001959103 -0.008331209
0003d0 4a f6 58 bc 7e a3 ae bc 11 63 81 bc 59 65 1e 3d
       -0.013242314 -0.021318194 -0.015794309 0.03867087
0003e0 6c f8 6c 3e ac 6d 08 bd fc 93 66 3d c9 dc 54 bc
       0.2314164 -0.033307716 0.056293473 -0.012992092
0003f0 67 96 24 3d 9d d9 2a be bf 98 7d bc e2 eb 14 bd
       0.040182497 -0.16684575 -0.015478312 -0.036357768

fc3.weight f4 [79, 256]
000000 e9 07 b5 bb 47 5a d4 3c 16 b3 27 bd 07 f9 fc bc
       -0.0055246246 0.025921954 -0.040942274 -0.030880464
000010 8e cd 3b bb 4c e2 d8 ba 41 3e 5a bc 65 a4 c7 bd
       -0.0028656456 -0.0016546934 -0.013320507 -0.09748153
000020 e6 7e c5 bb 57 c2 ba 3b e9 66 72 bc 3b 21 83 bc
       -0.0060270904 0.0056994366 -0.0147950435 -0.016007056
000030 74 26 03 3c 33 96 4e 3c 57 e0 5c 3c 94 12 22 3c
       0.008004773 0.0126090525 0.013481221 0.009892125
000040 54 db 4c bc 58 96 3b bd 00 f7 31 bc 90 56 b5 3c
       -0.012503464 -0.045797676 -0.010862112 0.022136003
000050 aa 68 2a ba 50 32 5a bc 7d dc 8d bd 45 0c 88 bc
       -0.00065005815 -0.0133176595 -0.069268204 -0.016607413
000060 30 ff 89 3d 54 81 a7 3c 3c fe 61 3c 3e 9d e9 3a
       0.06738126 0.02044741 0.013793524 0.0017823351
000070 ef bd 3d bc 27 a0 8c bc f8 9e 10 3b ff 15 18 bb
       -0.011580928 -0.01716621 0.002206741 -0.002320647
000080 bf 1d 9b 3c 12 ac a9 3b b0 39 d5 bb 64 d7 69 bc
       0.018935082 0.005177983 -0.006507121 -0.0142725445
000090 0f b6 2d ba 42 c2 2a bc 79 e6 3c ba d4 8d 83 3d
       -0.0006626555 -0.010422291 -0.0007205974 0.06423536
0000a0 16 06 02 bc 5e 29 ec bb b2 85 96 bb 9f a9 5c 3c
       -0.007936021 -0.00720708 -0.0045935744 0.013468175
0000b0 fb d2 20 bc 8e b5 e6 bc 44 7c 59 3c 06 d6 42 bc
       -0.009815927 -0.028162744 0.013274256 -0.0118918475
0000c0 81 46 b0 3c 7d 6b fb 3b 4f 33 6e bc ca ae 33 3c
       0.021517994 0.0076727257 -0.0145386 0.010966966
0000d0 3c 5c 4c bd c5 4e 41 3c 34 b0 99 bc f3 37 24 bc
       -0.04989265 0.011798565 -0.018760778 -0.010023105
0000e0 36 2e 80 bd 36 29 ad 3b 4f 66 84 ba d3 a6 cb 3b
       -0.06258814 0.0052844537 -0.0010101291 0.0062149554
0000f0 d2 9e 25 bd b7 39 89 bc 61 95 1b bb 6b fd e3 3b
       -0.040434666 -0.016751153 -0.002374016 0.0069577
000100 44 a9 c9 bb 60 5e b2 bc 95 91 58 bb 1a ec 89 bc
       -0.0061542112 -0.021773517 -0.0033045758 -0.016836215
000110 8d 4e 92 bc 30 09 e9 ba 18 85 48 bc a8 4e 22 3c
       -0.017859722 -0.0017779227 -0.012238763 0.009906448
000120 b2 19 55 bd 21 6d 0f bd d9 95 07 bb ff e9 77 bc
       -0.052026458 -0.035016183 -0.0020688681 -0.015131473
000130 d6 8b ac 3c 68 18 06 bc 3f 95 96 3d b2 6c 57 3d
       0.021062773 -0.00818453 0.07352685 0.052593894
000140 f8 92 32 3d 67 76 29 bb f8 92 c3 3b 5b b2 89 bb
       0.04359719 -0.0025857927 0.005968448 -0.00420217
000150 2c d8 99 3b 18 07 42 bc 6a ef 62 3a 6e e4 1f 3a
       0.004694959 -0.011842512 0.00086568913 0.00060994073
000160 f5 1d 46 bd c6 0e 00 3c 76 29 84 ba 65 a4 84 3b
       -0.048368413 0.007816022 -0.0010083157 0.0040479177
000170 93 6f 3f bd 15 fb f3 bb ec 82 63 bc 10 b9 4f 3c
       -0.046737265 -0.007445703 -0.013886195 0.0126784
000180 ae 43 cd 3c 2c 27 7d 3d a3 dc 70 bc c5 32 9b 3d
       0.025056686 0.061804935 -0.014701041 0.07578043
000190 ab 29 97 3b 60 30 e9 bc 95 e3 59 3d d4 78 1a 3b
       0.0046131215 -0.02846545 0.053195555 0.0023570554
0001a0 fe ce 72 3d 89 58 04 bc 79 1c 8f ba ac eb 2f bd
       0.059279434 -0.008077749 -0.001091852 -0.042949364
0001b0 03 7d bd bc ae 66 08 3d 92 bb 59 3c 3d 14 71 bc
       -0.0231309 0.033301048 0.013289349 -0.014714298
0001c0 24 c8 ac bc e0 6d 82 bb c1 5f 91 3b b5 85 49 bb
       -0.021091528 -0.0039803833 0.0044364636 -0.0030749862
0001d0 a4 1e 09 bd b9 ea 02 bd a5 16 10 bd 2e 26 21 3d
       -0.033476487 -0.03196213 -0.035177846 0.03934305
0001e0 e9 3e 95 bb 1b 8a e5 bb 6b 82 99 3a 8b b2 2c ba
       -0.0045546186 -0.007004989 0.0011711841 -0.0006587884
0001f0 3c 8b 4a 3c e8 49 2c bb 9c 03 e0 bb e4 1a 3d 3c
       0.012362298 -0.0026289169 -0.006836368 0.011542056
000200 f7 b0 46 bc cb 1c 1b 39 90 36 9d bc 35 5b 25 3d
       -0.012127153 0.00014792678 -0.019191056 0.040370185
000210 e9 b6 9d 3b ce 6d b7 3c 59 f4 b6 bc 5f 3f 36 bc
       0.0048130644 0.022391226 -0.02233331 -0.011123507
000220 79 48 c2 3c d9 c0 08 3d d7 76 bf bc eb 85 fc bc
       0.023716198 0.03338704 -0.023372097 -0.030825576
000230 b6 67 9e 3c 2e 8f de 3b eb c2 31 3c 6c 2b fd bb
       0.019336563 0.0067919707 0.010849695 -0.0077261236
000240 8c 57 58 3b 26 da b5 bb 27 ad 73 3c cb 71 b5 3b
       0.0033011166 -0.005549687 0.014872826 0.005537247
000250 ac d8 67 3d 97 1d 1e bd e1 34 21 3c 20 73 56 bd
       0.05660312 -0.038602438 0.0098392675 -0.052355886
000260 d5 69 3c bc 00 80 f6 3d 53 21 56 3c f6 92 e3 3b
       -0.011499842 0.12036133 0.013069469 0.0069450093
000270 82 d8 33 3d af 2f cf 3c 4a a0 39 3c 58 01 e2 3b
       0.04390765 0.025291292 0.01132972 0.006897133
000280 78 c6 f5 38 df c5 60 bd 7a 55 68 3b 65 05 c7 bc
       0.00011719478 -0.054876205 0.0035451339 -0.024294565
000290 f2 7b b6 3c 90 04 65 bc b4 30 3c 3d 80 fe 82 bc
       0.022275899 -0.013978139 0.045944884 -0.015990496
0002a0 82 1c 1b 3b 7b 39 1a 3d eb 78 39 bd e1 62 ff 3b
       0.0023668115 0.037652474 -0.045281332 0.0077937697
0002b0 9f c2 1e bd 27 34 96 3b 72 01 55 bc 1b e8 62 bd
       -0.038759824 0.0045838538 -0.013000833 -0.055397134
0002c0 b9 f3 93 3c 2e ea 14 bd 1c df aa bc 0a 5d c6 3b
       0.018060552 -0.036356144 -0.02085834 0.0060535716
0002d0 3d 7d cf 3b 7e 7e a3 bd 72 1d 95 bc 2c 82 0f 3d
       0.0063320682 -0.07983111 -0.018202517 0.03503625
0002e0 44 84 6d bd 4c 52 c0 bb ca 2b 6c 3c 86 e6 e7 3c
       -0.057987466 -0.0058691856 0.014414737 0.028308164
0002f0 f2 5d 99 ba 69 0f d8 bc fd fc 10 3b 28 b5 fb 3c
       -0.0011700972 -0.026374536 0.002212345 0.03072603
000300 5f 62 d6 3b 7d bb 75 bb f3 a3 3f bd 9a 64 86 3c
       0.0065424885 -0.0037495785 -0.046787214 0.016405392
000310 46 94 88 bc a2 16 12 bd 64 b8 b3 3b 95 bf e1 bb
       -0.016672265 -0.035666116 0.0054846276 -0.0068892934
000320 e2 d6 f4 3b 66 c1 e6 3c f9 f1 bc bc 14 0a 0c bd
       0.007471905 0.028168391 -0.0230646 -0.0341893
000330 df 71 66 bd 1a 04 a1 bc 34 1b 34 bb 76 b1 e3 3c
       -0.05626094 -0.019655276 -0.0027482035 0.02779458
000340 73 8c c8 3b 04 77 a4 bc 5d 01 6f 3b 9b 4f 6d 3c
       0.0061202585 -0.020076282 0.0036469318 0.014484311
000350 bf cf 5b 3c 2d 52 80 bd 7f 4a 1b bd 82 94 e8 3b
       0.01341623 -0.06265674 -0.037912842 0.0070977816
000360 88 15 e5 bb 25 3f 62 3d 31 33 44 bc 10 95 a0 3c
       -0.006991092 0.055236 -0.011975096 0.019602329
000370 b5 3d 98 3b 78 25 0b bb 17 b5 8c 3b 7a ed 2a bd
       0.004646028 -0.002123205 0.0042940485 -0.04173038
000380 f6 9a aa bc 4b 09 71 bc f9 8f 91 bd f7 4b 15 3c
       -0.020825844 -0.014711688 -0.07107539 0.00911235
000390 31 26 69 3c 20 4f 1e 39 62 33 7e 3c 1a 7a 87 bc
       0.014230297 0.0001509753 0.01551518 -0.016537715
0003a0 d7 75 f0 3c b6 f9 a4 3d d2 3a 92 bc 8d 7f f4 3a
       0.029353065 0.08055441 -0.017850313 0.0018653736
0003b0 01 ef 95 bd b2 0e 53 bb 5b a4 26 bb 77 35 4b 3b
       -0.07320977 -0.0032204804 -0.0025427553 0.003100721
0003c0 cf 8a de bb 0b 48 d5 b9 b9 60 00 3d 14 16 21 3d
       -0.0067914496 -0.00040680202 0.031342242 0.039327696
0003d0 83 68 05 bc e9 15 05 3c 39 17 d8 38 6a 7f 15 bc
       -0.008142593 0.0081229 0.00010304008 -0.009124616
0003e0 a8 b6 27 bd 0c e0 49 bb 7a 78 d7 bc d7 d8 88 3b
       -0.04094568 -0.0030803708 -0.026302565 0.00417624
0003f0 71 39 81 bd f4 c8 88 3c ae d5 59 bb c9 4b 49 3c
       -0.06309784 0.016697384 -0.0033238935 0.012286135

fc3.bias f4 [79]
000000 5f 1d 1f be 4d 3d 03 bc 41 fe 0c be 95 df b9 3d
       -0.15538548 -0.008010221 -0.13768865 0.09075848
000010 b0 94 c2 3d 7c b5 2e be 39 93 e2 3c 9a 2f f8 bd
       0.09501016 -0.17061418 0.027658092 -0.12118454
000020 3e 64 2c bd 69 e0 81 bd 38 d3 9a bd e6 d3 28 3d
       -0.042087786 -0.06341631 -0.07559818 0.041217707
000030 8c 9c 94 bc 15 1a 24 be b0 50 11 bc 2b e1 82 bc
       -0.018141054 -0.16025575 -0.008869335 -0.01597651
000040 4a a9 cd bc 3d 05 5c bc af 71 80 bd 44 89 b4 bd
       -0.025105137 -0.013428983 -0.062716834 -0.08815244
000050 92 eb 30 be 7a 46 1b 3d cf 52 1c 3d 13 62 f2 bd
       -0.17277363 0.03790901 0.03816491 -0.118351124
000060 be 3a 14 be 89 d3 2e 3d 25 88 02 bd 54 e2 8e 3d
       -0.14475533 0.042682204 -0.03186812 0.069767624
000070 27 03 49 3e 73 52 19 3e 85 50 d3 3d f2 6d 44 3c
       0.19630109 0.14972858 0.10318092 0.011989104
000080 82 24 95 bc d6 ab f8 3d 08 cf 81 bd c1 f6 cc bd
       -0.018205885 0.1214215 -0.06338316 -0.10008002
000090 06 85 8c bd 19 1c d6 bc 54 0c f3 bc 14 20 0e bd
       -0.0686131 -0.026136445 -0.029668964 -0.03469856
0000a0 17 b2 98 3d fb 7f 31 3d 0e 9b 8c bd b6 8a 29 3e
       0.07455843 0.043334942 -0.06865512 0.1655682
0000b0 dd d2 f4 bd a8 7b b9 bc b1 93 ce bd d9 24 7a 3d
       -0.119542815 -0.022641972 -0.10086764 0.061070297
0000c0 30 24 7d bc e4 56 39 3d 75 fa 19 3d cf e1 03 be
       -0.015450522 0.04524888 0.03759237 -0.12879108
0000d0 dd 87 00 be 2f fa 6e 3d 5b 7e fa 3c 93 b1 8e bd
       -0.12551828 0.058344062 0.03057783 -0.06967463
0000e0 68 71 52 bd 4f d0 59 bc 57 a0 40 bd a0 d8 b8 3d
       -0.051377684 -0.013294294 -0.047027912 0.09025693
0000f0 30 76 a6 3c 33 81 04 3d f1 06 9d bd 8d c1 71 3d
       0.020320028 0.032349776 -0.076673396 0.059022475
000100 97 ea 26 be 56 95 b3 3d 94 a1 31 bd 3f 62 b4 bd
       -0.16300426 0.08768718 -0.043366984 -0.088078015
000110 aa aa a9 3d fc a7 b8 bd 2d d4 fd 3d 24 c4 0f 3d
       0.08284505 -0.090164155 0.12393985 0.035099164
000120 3e ee f5 3d b0 6b 97 bd 22 1b cc bc f5 5d f6 3d
       0.12008332 -0.07393587 -0.024915282 0.1202964
000130 86 19 b4 3c 23 98 80 bd 7b ca c1 3d
       0.021984827 -0.06279018 0.09462448
