data_util/face_disentangle_3dmm/pretrained_models/32_16/dis_ckpt.pth (torch, 489225 bytes, 10 tensors)

fc1.weight f4 [128, 79]
0	0x3dee75d2	0.11643566
1	0x3ef75095	0.48303667
2	0xbe875ad2	-0.26436478
3	0x3e923eec	0.2856363
4	0x3ea6ca7a	0.32576352
5	0xbdbc74a1	-0.09201933
6	0x3e8171e2	0.25282198
7	0x3dd40ae7	0.10353642
8	0xbd515ab5	-0.051111896
9	0xbd898c18	-0.06716174
10	0x3e024e01	0.12725069
11	0x3e7ba232	0.24573591
12	0x3d672618	0.056432813
13	0x3cf67fb0	0.030090183
14	0xbc3fef92	-0.011714833
15	0x3e03ca43	0.12870125
16	0xbe082fea	-0.13299528
17	0x3e533527	0.20625745
18	0xbe0a7460	-0.13520956
19	0xbe3c82f6	-0.18409333
20	0x3a90a381	0.0011035056
21	0xbc713617	-0.014722369
22	0xbd44a662	-0.048010238
23	0xbd322f7b	-0.043502312
24	0xbdb5d700	-0.088788986
25	0xbc029c08	-0.007971771
26	0xbd20abdc	-0.039226398
27	0x3e16f0cc	0.14740294
28	0xbcba617d	-0.022751564
29	0xbd2295b3	-0.039693546
30	0x3e0f7639	0.14009942
31	0x3de4cd37	0.11171954
32	0xbd9780a6	-0.073975846
33	0x3d9b4a31	0.0758251
34	0x3de930d5	0.11386267
35	0xbd64ce67	-0.055860903
36	0x3b7a7201	0.0038214924
37	0xbd236887	-0.039894607
38	0xbc335f58	-0.010948025
39	0xbc8ea2c7	-0.017411603
40	0x3cf3e5de	0.029772695
41	0x3c5e1a34	0.013556052
42	0x3d1229ff	0.03568458
43	0x3abf89fc	0.0014613266
44	0x3cd84297	0.02639894
45	0xbd46a086	-0.04849293
46	0xbd8b25a9	-0.067942925
47	0xbd76b4bd	-0.06023096
48	0x3d035cea	0.03207103
49	0xbc76fd38	-0.0150750205
50	0x3d33bba2	0.043880112
51	0xbe035446	-0.12825117
52	0xbd4e831e	-0.05041801
53	0x3d1a4728	0.037665516
54	0x3d08b4d0	0.03337556
55	0x3cb2d025	0.021827767
56	0xbdbef283	-0.09323599
57	0xbe34c627	-0.17653714
58	0x3bafe5e4	0.0053679813
59	0x3c2028f3	0.009775388
60	0x3c0e812b	0.008697788
61	0xbc95af9d	-0.018272216
62	0xbd9e2e84	-0.07723716
63	0x3ca86aac	0.020558678
64	0x3c342214	0.010994453
65	0x3db63598	0.08896941
66	0xbd2c2efe	-0.042037003
67	0xba5543bb	-0.0008135398
68	0xbc17ef9e	-0.009273438
69	0x3dc12a93	0.094319485
70	0xbd409adf	-0.047022697
71	0xbc3e80ce	-0.011627389
72	0xbb20e27c	-0.0024549058
73	0xbd39ecc4	-0.045391813
74	0xbc740dde	-0.014895884
75	0x3c8d2ef2	0.0172343
76	0xbc098646	-0.00839383
77	0x3ab89cf3	0.001408486
78	0x3df74a6e	0.12074743
79	0xbcb803e5	-0.022462795
80	0x3e3a5223	0.18195395
81	0xbdbc8ad0	-0.09206164
82	0x3d9a91ab	0.07547315
83	0xbda33d13	-0.07970633
84	0xbba8aec2	-0.005147786
85	0xbd8567bf	-0.065139286
86	0xbc5a8299	-0.013336801
87	0xbd611160	-0.05494821
88	0x3ce97c6d	0.028501714
89	0x3d55e839	0.052223418
90	0xbd2f046d	-0.04272883
91	0x3e3a19a0	0.18173838
92	0xbde087a8	-0.109633744
93	0x3c46e935	0.012140562
94	0x3df28de3	0.11843469
95	0xbdf3f17a	-0.119112924
96	0xbdbe356a	-0.09287532
97	0x3d010db7	0.03150722
98	0xbdd2dd83	-0.10296156
99	0xbd31f6c8	-0.04344824
100	0xbd43c913	-0.04779918
101	0x3d682cff	0.056683537
102	0xbd0f849d	-0.03503858
103	0xbc5d9ad0	-0.01352568
104	0xbd36ff0e	-0.044676833
105	0x3cae3514	0.021265544
106	0xbb9b8ffa	-0.004747388
107	0xbd83be50	-0.064327836
108	0x3ce7b04e	0.02828231
109	0xbc2bc88a	-0.010484824
110	0xbcbd85d8	-0.02313511
111	0xbd91fdaf	-0.071284644
112	0xbdb38bb0	-0.08766878
113	0xbc08706d	-0.008327586
114	0x3d33d5c6	0.043905042
115	0x3af1d55b	0.0018450426
116	0x3d19a83f	0.037513968
117	0x3de502d0	0.11182177
118	0xbd1a2735	-0.037635047
119	0x3bd73b67	0.0065683606
120	0x3e7d7194	0.24750358
121	0xbc3be234	-0.011467505
122	0xbdbe2328	-0.09284049
123	0xbdcb131f	-0.099157564
124	0x3d81321e	0.06308387
125	0xbdab6d97	-0.08370512
126	0x3db7b8c2	0.08970787
127	0xbce4ed83	-0.027945286
128	0xbd4b9e18	-0.049711317
129	0xbd7282de	-0.059206836
130	0x3e13c142	0.14429191
131	0x3d8f0a26	0.069843575
132	0xbd942115	-0.072328724
133	0xbd351897	-0.044212904
134	0xbce2ab64	-0.027669616
135	0x3d93c88e	0.07215987
136	0x3db2f0d1	0.08737338
137	0xbbb8966c	-0.005633166
138	0xb7d6257a	-2.552824e-05
139	0x3d02c7be	0.03192877
140	0x3cc85c84	0.024458177
141	0x3d877809	0.06614692
142	0x3d9fc5c0	0.0780139
143	0x3c2ba3d6	0.010476073
144	0xbdfaec25	-0.12252072
145	0xbd53eb63	-0.051738154
146	0xbc4eef7c	-0.01263034
147	0x3ab2e4e8	0.0013648542
148	0x3bc3b0ac	0.0059719887
149	0x3c905a1b	0.01762109
150	0xbd0726f3	-0.03299613
151	0xbd0668f1	-0.032814924
152	0x3d9df2e4	0.07712343
153	0xbdc9f45f	-0.09861063
154	0xbdfbc19c	-0.122927874
155	0x3cc80cfa	0.02442025
156	0x3c45e326	0.012078082
157	0xbd1d528a	-0.038408794
158	0xbe46ccf6	-0.19414124
159	0xbe845253	-0.25844058
160	0xbe312d84	-0.17302519
161	0xbe2e690c	-0.1703226
162	0x3cee7e31	0.029112907
163	0xbdbdd0d9	-0.0926835
164	0xbccd156c	-0.025034629
165	0x3def6145	0.116884746
166	0xbd46e987	-0.048562553
167	0xbccdbb1f	-0.02511364
168	0x3db0f125	0.08639745
169	0xbc2a4e4e	-0.010394646
170	0xbd40d2a4	-0.047075883
171	0xbcb80ce2	-0.02246708
172	0xbda83066	-0.08212356
173	0x3b9ce3f0	0.0047879145
174	0xbd14b082	-0.036301143
175	0x3d63a689	0.055578742
176	0x3cf0ee5d	0.029410535
177	0x3e004468	0.12526095
178	0x3d710601	0.058843616
179	0xbdb7a573	-0.08967104
180	0xbd95eeaf	-0.07320916
181	0x3d946b51	0.072470315
182	0x3e1300ad	0.14355727
183	0xbe002e5e	-0.12517688
184	0x3ddfe064	0.10931471
185	0xbcf26d3a	-0.029593099
186	0xbcc09f91	-0.023513587
187	0xbcd0aa14	-0.025471725
188	0x3b2b1400	0.002610445
189	0xbcb3e78c	-0.021960996
190	0xbcd3f295	-0.025872508
191	0x3d8debbd	0.06929729
192	0xbdde6fba	-0.10861154
193	0x3da519fc	0.08061597
194	0xbc49607f	-0.012291073
195	0x3d87c9a1	0.066302545
196	0xbde066a4	-0.10957077
197	0x3cbfa7fd	0.023395533
198	0xbd8ad106	-0.06778149
199	0x3d97ae1e	0.07406257
200	0xbe01c322	-0.12672094
201	0xbdaf5bc8	-0.08562428
202	0x3d403350	0.046923935
203	0x3cae6dfb	0.021292677
204	0x3daad4eb	0.08341392
205	0x3d184996	0.037179552
206	0xbd3bfda1	-0.045896176
207	0xbd02cf96	-0.03193625
208	0x3d9e5333	0.07730713
209	0x3dc816df	0.09769987
210	0xbc8632ef	-0.016381709
211	0x3c8d4b60	0.017247856
212	0xbd47819b	-0.048707586
213	0x3d4895d8	0.048971027
214	0xbcdd47f6	-0.027011853
215	0xbc5acaf3	-0.013354051
216	0xbd1c0fa6	-0.03810086
217	0x3dbab093	0.0911571
218	0x3cef3239	0.029198753
219	0x3d9a03e7	0.075202756
220	0xbd830ad0	-0.06398547
221	0x3dd44ac8	0.10365826
222	0x3c4a0089	0.012329229
223	0x3dc280b8	0.094972074
224	0x3d27a871	0.040932123
225	0xbbeb903f	-0.0071888263
226	0xbbdb08ab	-0.006684383
227	0xbe88f893	-0.26752147
228	0x3d89afdd	0.067229964
229	0xbc9ae10d	-0.01890614
230	0x3b3a4b75	0.0028426324
231	0xbb87ed0e	-0.004148132
232	0x3c007583	0.007840517
233	0x3db40ee8	0.08791906
234	0xbc048d84	-0.008090381
235	0xbafac77c	-0.0019132937
236	0x3e3af6bc	0.18258184
237	0x3efa02a7	0.4883015
238	0x3d57b45f	0.05266225
239	0x3eb36134	0.35035098
240	0xbce5c761	-0.028049173
241	0xbdb8f150	-0.09030402
242	0x3e80f381	0.2518578
243	0xbce039bd	-0.027371282
244	0x3dd60958	0.10451001
245	0x3ceba2af	0.028764097
246	0x3d072bcb	0.03300075
247	0xbd293b2b	-0.041316193
248	0xbe0c3c54	-0.13694888
249	0x3d3e6d42	0.046490915
250	0x3e40db6e	0.18833706
251	0x3db45275	0.0880479
252	0xbd9514a4	-0.072793275
253	0xbc8850dc	-0.01664012
254	0x3c387ce5	0.011260246
255	0x3c59cc41	0.013293327

fc1.bias f4 [128]
0	0x3c8e1ff3	0.017349219
1	0xbc9c38bb	-0.01907002
2	0xbda3d9b6	-0.080005094
3	0x3ea03676	0.3129155
4	0x3e386d2d	0.18010397
5	0xbf4e20bf	-0.80518717
6	0x3d00a0cf	0.03140336
7	0x3de42d78	0.11141485
8	0x3c250777	0.010072581
9	0xbf8c03e3	-1.0938686
10	0xbc8e0c84	-0.017339952
11	0xbd951c1b	-0.07280751
12	0x3d8207bd	0.06349132
13	0x3b3fd2c0	0.0029269904
14	0xbd19a00c	-0.03750615
15	0x3b8195df	0.0039546336
16	0xbde17fd5	-0.1101071
17	0xbf6da9e4	-0.9283736
18	0xbea449b8	-0.32087493
19	0x3e4fc68d	0.20290585
20	0xbdd75b5d	-0.10515473
21	0xbf5395ae	-0.8265027
22	0xbd98115a	-0.074251845
23	0xbd8e8cfe	-0.06960486
24	0xbd3b78b8	-0.045769423
25	0x3e17e1bc	0.14832205
26	0xbdbb3d77	-0.09142583
27	0xbf6c524f	-0.9231309
28	0xbd7e1ee4	-0.06204118
29	0x3d885738	0.06657261
30	0xbcb30223	-0.021851605
31	0xbdf08fbf	-0.117461674
32	0xbf8ebb18	-1.1150846
33	0xbdd02494	-0.10163227
34	0x3e4ae93e	0.19815537
35	0xba4f7a9f	-0.00079146953
36	0xbf8dcfe1	-1.1079065
37	0xbd8d608e	-0.06903182
38	0xbf66cd3b	-0.90156907
39	0xbf5cba17	-0.8622145
40	0x3dd2b040	0.10287523
41	0xbd1ee4f5	-0.03879257
42	0x3d3e3f04	0.046446815
43	0xbdc823e4	-0.097724706
44	0xbddda357	-0.1082217
45	0x3df8b49c	0.121438235
46	0x3db6d8d2	0.08928074
47	0x3e0edded	0.13951845
48	0xbf72d433	-0.9485504
49	0xbc70c438	-0.01469522
50	0xbd490719	-0.049079034
51	0xbe0189f4	-0.12650281
52	0xbcf01079	-0.02930473
53	0x3dcec926	0.1009696
54	0x3d9353b7	0.07193702
55	0xbf866f2c	-1.0502677
56	0xbcd785ca	-0.026308913
57	0xbdc499d8	-0.09599656
58	0xbd682eff	-0.056685444
59	0x3d830275	0.06396953
60	0x3cba63c8	0.022752658
61	0x3d11ef60	0.035628676
62	0xbd0c49f0	-0.0342502
63	0xbc8e26e7	-0.017352534
64	0xbc8ae2a8	-0.016953781
65	0xbd89756b	-0.06711849
66	0x3d98260f	0.07429134
67	0x3dcfca4a	0.101460055
68	0xbe2c6a78	-0.1683749
69	0xbdd5f451	-0.1044699
70	0xbd5bda2c	-0.05367486
71	0xbd3c51f0	-0.04597658
72	0xbd5d06e6	-0.053961657
73	0x3db2b3e9	0.087257214
74	0xbdd4b220	-0.10385537
75	0x3e2cf3f0	0.1688993
76	0xbf7dd9cc	-0.99160457
77	0x3d959fa8	0.07305843
78	0x3e83e2ad	0.25758877
79	0x3d1e69fe	0.0386753
80	0x3d7b8e41	0.06141496
81	0x3d5ff51a	0.054677106
82	0x3d2e1ace	0.04250603
83	0xbd7fea12	-0.062479086
84	0x3e01a9f4	0.12662488
85	0xbde74a17	-0.112934284
86	0xbf80ab20	-1.0052223
87	0xbaeef974	-0.0018232302
88	0xbea32e03	-0.31871042
89	0xbc05c34e	-0.00816424
90	0xbca51b8f	-0.020154743
91	0xbf91749d	-1.1363713
92	0x3ea273a7	0.3172886
93	0x3dbbaf50	0.091642976
94	0xbf9108ba	-1.1330788
95	0xbf115d74	-0.56783223
96	0xbd56db34	-0.052455142
97	0x3c9fdea0	0.019515336
98	0xbf809a29	-1.0047046
99	0x3cf51531	0.029917331
100	0x3e142080	0.14465523
101	0x3e1246e4	0.14284855
102	0xbdb60df2	-0.088893786
103	0x3b216648	0.0024627615
104	0xbdf9ac66	-0.121910855
105	0x3c8e2633	0.0173522
106	0x3db4d743	0.088301204
107	0x3c7b0903	0.015321973
108	0xbda5bd67	-0.08092766
109	0xbf5697a3	-0.8382513
110	0x3cb02b30	0.021504968
111	0x3de25bfc	0.11052701
112	0xbd98d06c	-0.07461628
113	0xbd498c6b	-0.04920618
114	0x3d7e62e8	0.062106043
115	0x3e80b68a	0.25139266
116	0xbdb1dd32	-0.08684768
117	0xbe62a505	-0.22133262
118	0xbcfb41bd	-0.030670995
119	0xbbe76240	-0.007061273
120	0x3e5bba09	0.21457686
121	0x3de18cd4	0.11013189
122	0x3e165b24	0.14683205
123	0xbd8a2d26	-0.06746893
124	0xbe5bd8ac	-0.21469373
125	0x3e167af0	0.14695334
126	0x3d9e0a19	0.0771677
127	0xbe8e072a	-0.2773984

fc2.weight f4 [256, 128]
0	0xbb7d3c0c	-0.0038640527
1	0x3c271dfc	0.01020002
2	0x3addc66b	0.0016920095
3	0xb82b5f66	-4.0858424e-05
4	0xb9660e83	-0.00021939915
5	0x3d14a861	0.03629339
6	0x3bc4f6e9	0.0060108793
7	0x3918da57	0.00014577188
8	0x3f4cc2ad	0.7998455
9	0x3b9997c0	0.0046872795
10	0x3caca0c4	0.021072753
11	0xbb111190	-0.0022135712
12	0x3c236e5e	0.009975044
13	0xbcccda73	-0.025006508
14	0x3a2c5fdf	0.0006575565
15	0x3d018167	0.03161755
16	0x3bf7b6aa	0.007559617
17	0x3d34da27	0.04415336
18	0xbaece991	-0.0018074979
19	0xbb3860f7	-0.0028133967
20	0x3ca518c9	0.02015342
21	0x3c125919	0.008932375
22	0xba47a182	-0.0007615314
23	0xb8d12c5e	-9.974161e-05
24	0xbc179f84	-0.00925434
25	0x3d0f4e90	0.034987032
26	0xbc4baee4	-0.012431834
27	0x3daabf6f	0.08337294
28	0xbaeb2e31	-0.0017942843
29	0x3d27d6cd	0.040976334
30	0xbc0d28d1	-0.008615688
31	0x3d39bc64	0.04534568
32	0x3dbcb7c6	0.092147395
33	0x3cb58649	0.022158759
34	0xb9714269	-0.00023008291
35	0xbbb569c8	-0.0055362917
36	0x3d2ef795	0.04271658
37	0x3c644e74	0.01393472
38	0x3d5c67c1	0.053809885
39	0x3dc0e0df	0.09417891
40	0xbb514ad5	-0.0031935473
41	0xbcfe8d88	-0.031073347
42	0x3c163a74	0.00916921
43	0xbb19280a	-0.0023369812
44	0xbc75ca52	-0.01500185
45	0x3be9740a	0.0071244286
46	0x3bdf4902	0.006814123
47	0xbc86edd1	-0.016470822
48	0x3d3342ca	0.043764867
49	0x38e64821	0.0001098069
50	0xbb8d7937	-0.0043174285
51	0x3b1363c0	0.0022489876
52	0x3c48fa97	0.0122667765
53	0x3b3ac6e9	0.0028499907
54	0x3a5eddc6	0.0008501675
55	0x3cf86f87	0.030326618
56	0x3ce22656	0.02760617
57	0xbc11fbf6	-0.00891017
58	0x3cdff0f9	0.027336584
59	0xb9031629	-0.00012501389
60	0xbc0c23b5	-0.008553435
61	0xbcc9bd28	-0.02462633
62	0xbbb67bb9	-0.005568948
63	0x3b79bd73	0.0038107305
64	0xbd0aca17	-0.033884134
65	0xbc29642b	-0.010338823
66	0x38990a9f	7.297587e-05
67	0xba15f2ae	-0.0005720061
68	0xbaa246f6	-0.0012380767
69	0x3a285de1	0.00064226805
70	0x39238e32	0.00015597863
71	0x3ca2a5ea	0.019854505
72	0x3c413bb1	0.011794017
73	0xbc5d7bcf	-0.013518288
74	0xbd4c1088	-0.049820453
75	0x3b8f345d	0.004370256
76	0xbc47c027	-0.012191809
77	0x3b7f41da	0.0038949163
78	0x3b69e8dc	0.0035691774
79	0xb8ddcbf8	-0.00010576093
80	0xbc2de2ea	-0.010613183
81	0x3b783cd6	0.0037878058
82	0xbcaaa2d7	-0.020829601
83	0xbd3354a3	-0.043781888
84	0xbc58d0a0	-0.013233334
85	0x3cda9946	0.026684415
86	0xbcbb4c60	-0.022863567
87	0x3cd2ded7	0.025741024
88	0x3cd0a006	0.02546693
89	0xc0392d83	-2.8934028
90	0x392c78a2	0.00016448137
91	0x3c714fb8	0.014728479
92	0xbc976e06	-0.01848508
93	0x3c4da0bb	0.012550528
94	0xbc7fabac	-0.015604895
95	0x3c0b5669	0.0085044885
96	0xbc98be4c	-0.018645428
97	0xbca3cfa3	-0.01999647
98	0x3bf20cf6	0.007386799
99	0x39bdbde4	0.0003619037
100	0xbbbb5a47	-0.005717549
101	0xbc92603c	-0.017868154
102	0xbce2ed5d	-0.027701074
103	0x3bafcbf3	0.005364889
104	0x3c6d2177	0.014473311
105	0x3d08a8cc	0.033364102
106	0x3b0fdff7	0.0021953562
107	0xb91a17c3	-0.00014695436
108	0xbbd86b85	-0.006604614
109	0x3d8449d4	0.06459394
110	0x3be4c947	0.006982002
111	0x3cab99d1	0.020947369
112	0xbbf8689f	-0.007580831
113	0xbc416710	-0.011804357
114	0x3c639db9	0.0138925845
115	0x3c0c877b	0.008577223
116	0xb8bb7473	-8.938545e-05
117	0x3bfb3f3b	0.00766745
118	0xb88ee3c4	-6.813512e-05
119	0xbcd734e6	-0.026270341
120	0xb93e6585	-0.00018157631
121	0xbb8a76ec	-0.0042256024
122	0xbd164c0d	-0.03669362
123	0x3a6f8b73	0.0009137906
124	0xbc28dca0	-0.010306507
125	0x3c0ca06e	0.008583171
126	0x3afec1b4	0.001943639
127	0xbc1da9f0	-0.009623036
128	0x3c185369	0.00929723
129	0x3cadb73d	0.021205539
130	0x3c862792	0.01637629
131	0xbb89b710	-0.004202731
132	0x3ccfe908	0.025379673
133	0x3e0b47d7	0.13601623
134	0x3d8d4780	0.06898403
135	0x3cd6ac5b	0.026205232
136	0xbcfcc36d	-0.030854905
137	0xbc8e4ea2	-0.01737148
138	0xbd6c9895	-0.0577627
139	0x3b9a4877	0.0047083455
140	0xbcc121b0	-0.023575634
141	0xbdd64029	-0.10461456
142	0xbd56492f	-0.052315887
143	0x3db2d3bb	0.08731791
144	0x3d8c90d9	0.06863565
145	0xbcaa205a	-0.02076738
146	0x3e6cecbd	0.23137183
147	0xbb55064a	-0.003250497
148	0xbc93184d	-0.017955923
149	0x3e1c18bd	0.15243812
150	0x3d524908	0.05133918
151	0xbc9c3cc8	-0.019071952
152	0xbdc28493	-0.09497943
153	0x3d0abf1f	0.033873674
154	0x3cf5c6f8	0.030002102
155	0x3d25b0dd	0.040451873
156	0x3c42b15b	0.011883105
157	0x3dc467ea	0.095901325
158	0x3e87b6a8	0.26506543
159	0xbce1d4b1	-0.02756724
160	0x3e4901a4	0.19629532
161	0xbcc0e7e7	-0.02354808
162	0xbd246bcb	-0.040141862
163	0x3ead83e8	0.338897
164	0x3d76f275	0.06028982
165	0x3ccc3fc2	0.024932746
166	0x3cefbef5	0.02926586
167	0xbddc10c2	-0.10745384
168	0x3b81d4ed	0.0039621503
169	0x3e89fda4	0.26951325
170	0x3dbb3c9a	0.09142418
171	0x3cc48ed5	0.023993889
172	0x3eaae510	0.33377886
173	0xbc36f61d	-0.011167076
174	0x3cb5fa01	0.022213938
175	0x3c71057b	0.014710779
176	0xbce3d0fb	-0.02780961
177	0xbd9a0072	-0.07519616
178	0xbc9ed78e	-0.019389894
179	0xbb361373	-0.0027782589
180	0x3cce5e09	0.025191324
181	0xbd07584d	-0.033043195
182	0xbb39f47e	-0.0028374488
183	0x3baad3b9	0.0052132276
184	0x3d81f49d	0.063454844
185	0xbb350999	-0.002762413
186	0x3e08daf7	0.13364778
187	0x3d1b3182	0.03788901
188	0x3ca03cf7	0.01956032
189	0xbd46b1d1	-0.048509423
190	0x3b8a30cd	0.0042172433
191	0xbbdfed5d	-0.006833716
192	0xbd12693b	-0.035744887
193	0x3dfd0e92	0.12356295
194	0x3da13297	0.07870977
195	0xbc1af7c1	-0.009458483
196	0x3be1bd7a	0.0068890424
197	0xbc3e173d	-0.01160222
198	0x3d310d8f	0.04322582
199	0x3d0ac533	0.03387947
200	0xbcdc7542	-0.026911382
201	0xbd08c224	-0.033388272
202	0xbcdea201	-0.027176859
203	0xbd38df60	-0.045134902
204	0x3def3e7a	0.11681838
205	0x3e6924b2	0.22767904
206	0x3954f03d	0.00020307391
207	0x3df657c3	0.12028458
208	0x3d86f99f	0.0659058
209	0x3d6c6797	0.05771598
210	0xbd1a512f	-0.03767508
211	0xbd8a3465	-0.06748275
212	0x3beeb975	0.007285292
213	0xbc404e58	-0.011737429
214	0x3cfa9360	0.030587852
215	0x3e343da2	0.17601636
216	0x3dc0a3d8	0.09406251
217	0x3d705154	0.05867131
218	0xbd3d1246	-0.046160005
219	0xbd8f8e63	-0.0700958
220	0xbd8a2ebe	-0.067471966
221	0x3a914741	0.0011083857
222	0x3d6884f8	0.056767434
223	0x3ccd9133	0.02509365
224	0x3e569bef	0.20957921
225	0x3d9aaf5e	0.0755298
226	0x3da4d10d	0.08047686
227	0x3d0e1a60	0.034693122
228	0xbd87a3de	-0.06623052
229	0x3c56f963	0.013120982
230	0xbd93f2f9	-0.07224078
231	0x3c1b0db0	0.009463713
232	0xbcef1257	-0.02918355
233	0x3d9ba85f	0.076004736
234	0x3c15fe9e	0.009154944
235	0x3da0b435	0.07846872
236	0x3d7426eb	0.059607428
237	0x3d90fb26	0.07079153
238	0xbe08356b	-0.13301627
239	0x3d88f909	0.06688125
240	0x3ae6f092	0.0017619303
241	0x3d25f861	0.040520076
242	0xbd1ef32a	-0.038806118
243	0x3d6394ca	0.05556182
244	0xbcf6ce2c	-0.030127607
245	0xbcb0815d	-0.02154606
246	0x3d19c5d6	0.037542187
247	0x3d59c22f	0.053163704
248	0xbd1e9b1b	-0.03872214
249	0x3d1eb71d	0.03874885
250	0x3d957a86	0.0729876
251	0xbcf34d7e	-0.029700037
252	0xbcd4642b	-0.02592667
253	0xbdac4e2b	-0.08413347
254	0xbc78c893	-0.015184539
255	0x3e10dd70	0.14146972

fc2.bias f4 [256]
0	0xbaa39bfa	-0.0012482398
1	0xbcda3f5d	-0.026641542
2	0xbd1d6937	-0.03843042
3	0x3db0932a	0.08621819
4	0xbc19f28f	-0.009396209
5	0x3c8b41cd	0.01699915
6	0xbd9038d1	-0.07042087
7	0xbd02e77c	-0.031959042
8	0x3db2a3f7	0.0872268
9	0x3cc4a8a2	0.024006192
10	0x3d40ded5	0.04708751
11	0xbc8ccd19	-0.017187642
12	0xbde42a8d	-0.111409284
13	0xbd5275b1	-0.05138177
14	0xbd7a6f45	-0.06114127
15	0x3cc070a1	0.023491206
16	0xbdcf8e9d	-0.10134623
17	0x3dd306f5	0.10304061
18	0xba341fca	-0.0006871192
19	0xbd785d33	-0.060635757
20	0xbb88f7d2	-0.004179933
21	0xbd6246f8	-0.055243462
22	0xbdb11825	-0.08647183
23	0xba67bbd4	-0.0008839939
24	0xbec3d7df	-0.38250634
25	0x3d2ec316	0.042666517
26	0xbd03539a	-0.03206215
27	0x3d0acc88	0.033886462
28	0xbd47b2ee	-0.048754625
29	0x3e35f771	0.17770173
30	0xbc83d010	-0.016090423
31	0xbd769a27	-0.060205605
32	0xbde6b58e	-0.112650976
33	0xbd648a3a	-0.055795886
34	0xbd0cc9c9	-0.034372125
35	0x3d93e1d3	0.07220807
36	0x3ccbda4a	0.024884362
37	0xbd7a2549	-0.061070714
38	0x3cee3a3b	0.0290805
39	0x3d33916a	0.04383985
40	0x3d880336	0.066412374
41	0xbd65da15	-0.056116182
42	0x3cca7f54	0.024718918
43	0xbca7d364	-0.020486541
44	0xbc49435e	-0.012284128
45	0xbd340975	-0.04395433
46	0xbde25e9a	-0.110532
47	0xbc6d913d	-0.01449996
48	0xbc7b3ba9	-0.015334048
49	0x3cc091b5	0.023506979
50	0xbcc14f20	-0.0235973
51	0x3be465f8	0.0069701634
52	0x3ba38301	0.004989982
53	0xbd2bcf5a	-0.041945793
54	0x3d67a447	0.05655315
55	0xbc96e735	-0.018420795
56	0xbde77dc8	-0.11303288
57	0xbd875a6d	-0.06609044
58	0xbd855767	-0.06510811
59	0xbc6d6c1b	-0.014491106
60	0xbce29ed2	-0.027663622
61	0x3dc80bee	0.097679004
62	0xbe0d0099	-0.13769759
63	0x3d5e31be	0.054246657
64	0x3cfd2e94	0.030906
65	0xb9ef9950	-0.0004569986
66	0x3ad901a6	0.0016556277
67	0x3d50d78d	0.050986815
68	0x3b926289	0.0044673127
69	0x3da77027	0.08175688
70	0xbd18d8f2	-0.03731627
71	0x3d6d43db	0.05792604
72	0xbddfaf7d	-0.109221436
73	0xbd2bf72e	-0.041983776
74	0x3cfb10f4	0.030647732
75	0xbecfaf64	-0.405635
76	0xbd86d9be	-0.065845
77	0xbcdde561	-0.027086915
78	0xbde5fdb5	-0.112300314
79	0x3c057618	0.0081458315
80	0xbca74dde	-0.020422872
81	0x3b83292a	0.00400271
82	0x3d134c16	0.035961233
83	0xbeb17840	-0.34662056
84	0x3b5688f9	0.003273545
85	0x3d4b2159	0.04959235
86	0xbd8408f0	-0.06447017
87	0x3d4c8992	0.049935885
88	0xbd937cab	-0.07201513
89	0xbde3dfe3	-0.111266874
90	0xbd0f6863	-0.03501166
91	0xbd37a65e	-0.044836394
92	0xbc13339a	-0.008984471
93	0xbceef6e4	-0.029170461
94	0xbd02d59b	-0.03194199
95	0xbe8123d8	-0.2522266
96	0xbd714302	-0.058901794
97	0xbbdf7acd	-0.006820059
98	0x3c4de3e0	0.012566537
99	0x3d102521	0.03519166
100	0xbdb57a7c	-0.08861253
101	0xbc34eded	-0.011043054
102	0xbca294c8	-0.019846335
103	0xbcdbf1ca	-0.026848692
104	0xbd9b8893	-0.07594409
105	0x3d97d2e5	0.07413272
106	0x3d0e3ffb	0.034728985
107	0xbcacec03	-0.021108633
108	0x3b0a9a47	0.0021149085
109	0xbca30cd8	-0.019903585
110	0x3d8b1515	0.067911305
111	0x3d54fb2c	0.05199735
112	0xbe48fd90	-0.19627976
113	0x3d8536c5	0.06504587
114	0x3bfd55ad	0.0077311606
115	0x3db53904	0.088487655
116	0xbcad5f26	-0.021163534
117	0xbbc5bd42	-0.006034524
118	0x3bfc5488	0.0077005066
119	0xbd329f5f	-0.04360902
120	0xbdbfbd00	-0.09362221
121	0xbd314e76	-0.043287717
122	0x3b582739	0.0032982363
123	0x3dba09f8	0.09083933
124	0xbbb137ab	-0.0054082475
125	0x3c6bb4d2	0.014386373
126	0xbcbcada8	-0.023032025
127	0x3deb127d	0.11478136
128	0x3dbdbf84	0.09265044
129	0x3c3bd64c	0.011464667
130	0xbd66c935	-0.05634423
131	0xbdb5c303	-0.08875086
132	0x3d6874a3	0.05675186
133	0xbd981390	-0.07425606
134	0x3d303662	0.043020613
135	0x3d28e44d	0.04123335
136	0x3db03ed6	0.08605735
137	0xbd2ef773	-0.042716455
138	0xbdbcc3d1	-0.092170365
139	0x3b4e8b9a	0.0031516314
140	0xbd5cea4a	-0.053934373
141	0x3dac6e31	0.08419455
142	0x3c810be3	0.015752738
143	0xbd8e0ebb	-0.06936403
144	0xbd2995c0	-0.04140258
145	0xbb26b737	-0.0025438794
146	0xbcb29219	-0.02179818
147	0x3dd3b198	0.10336608
148	0xbda90663	-0.08253171
149	0xbd4620c4	-0.04837109
150	0xbd61600c	-0.055023238
151	0x3df45ef8	0.11932176
152	0xbacdaf4d	-0.0015692502
153	0xbd9af295	-0.075658
154	0xbdb890c5	-0.090119876
155	0xbdd2e101	-0.10296822
156	0x3d9fe9a8	0.07808238
157	0xbdaf01f0	-0.085452914
158	0xbd3f3002	-0.046676643
159	0x3cf76125	0.03019769
160	0xbd7479e8	-0.05968657
161	0xbce16179	-0.027512299
162	0xbd59279d	-0.053016294
163	0xbd5b54ad	-0.05354755
164	0x3b16c96f	0.0023008247
165	0xbc920154	-0.017822899
166	0xbe0a4c01	-0.13505556
167	0x3dcf5589	0.101237364
168	0x3b8d8226	0.0043184934
169	0xbc4087ee	-0.011751158
170	0xbd79353c	-0.060841784
171	0x3d84dfa4	0.064879686
172	0xbd4eb970	-0.050469816
173	0x3ab893e1	0.0014082157
174	0x3dc6fff7	0.0971679
175	0xbd18d458	-0.03731188
176	0xbf1d2652	-0.613866
177	0xbc8b0d97	-0.016974254
178	0x3d264b9c	0.04059945
179	0x3d62ec2f	0.055401023
180	0xbd4e8d1f	-0.050427552
181	0xbd6f5942	-0.058434732
182	0xbbe39850	-0.0069456473
183	0x3da35eb3	0.07977047
184	0x3d88d549	0.06681306
185	0x3c8de736	0.017322164
186	0x3dbaf170	0.09128082
187	0xbc84b187	-0.016197933
188	0xbcead6ac	-0.028666817
189	0x3c157478	0.009122007
190	0x3cd331b9	0.025780546
191	0xbdf99141	-0.12185908
192	0xbdccf587	-0.10007768
193	0xbd5848dc	-0.05280386
194	0xbd94c67d	-0.07264421
195	0x3da6e1ad	0.08148513
196	0xbdc4b2f8	-0.09604448
197	0x3d3f060a	0.04663662
198	0xbb688f50	-0.0035485812
199	0x3dd06d05	0.10177044
200	0x3d792a46	0.06083133
201	0xbd32a89d	-0.043617833
202	0xbdd2d9b8	-0.10295433
203	0xbc9b0746	-0.018924367
204	0xbd527a81	-0.05138636
205	0x3e033c9b	0.12816088
206	0xbcb40d38	-0.02197896
207	0x3db28c0e	0.087181196
208	0xbc6d2e47	-0.014476365
209	0x3d1c57a3	0.038169514
210	0xbdba8fb5	-0.09109441
211	0xbcf337ff	-0.029689787
212	0xbd486908	-0.04892829
213	0x3bc16c8e	0.0059028333
214	0x3d264370	0.040591657
215	0x3cca0d2b	0.024664482
216	0xbd95e35e	-0.073187575
217	0xbd4865dd	-0.04892527
218	0xbd6610f5	-0.056168515
219	0xbd34e6be	-0.044165365
220	0x3bab92ce	0.0052360063
221	0xbe6a0401	-0.2285309
222	0xbd72f434	-0.05931492
223	0xbd342fb3	-0.043990802
224	0xbd667230	-0.05626124
225	0xbd7c7bc5	-0.061641473
226	0xbd109ead	-0.035307575
227	0xbd35f414	-0.044422224
228	0xbe2500de	-0.16113612
229	0x3e07537a	0.13215438
230	0xbbe356c0	-0.0069378316
231	0xbd382c7c	-0.0449643
232	0xbd469181	-0.048478607
233	0xbd933fa5	-0.071898736
234	0x3da02ef3	0.07821455
235	0xbb680bf4	-0.0035407515
236	0xbd4189fd	-0.047250737
237	0xbc255456	-0.010090908
238	0x3cbeb415	0.02327923
239	0x3d0bac79	0.03410003
240	0xbd8e810e	-0.06958209
241	0xbd8f242b	-0.0698932
242	0xbd3cd4e6	-0.046101473
243	0xbca6ff9f	-0.020385562
244	0x3e188f49	0.14898409
245	0x3d22fa0e	0.039789252
246	0x3c963e39	0.018340217
247	0xbd35a7b6	-0.044349395
248	0xbc639a9d	-0.013891843
249	0xbe4a73c8	-0.1977073
250	0x3dd3e128	0.103456795
251	0xbd69c066	-0.05706825
252	0xbaa94f8f	-0.0012917387
253	0xbc0ca7fc	-0.0085849725
254	0xbd91d857	-0.07121342
255	0xbdbf6000	-0.093444824

fc3.weight f4 [256, 256]
0	0x3e0d591a	0.13803521
1	0xbda0da13	-0.07854094
2	0xbc4f7e32	-0.012664365
3	0x3c47a72c	0.012185853
4	0x39f19b44	0.00046082784
5	0xbc52df04	-0.012870554
6	0xbce49dd7	-0.027907295
7	0xbb8bd024	-0.0042667557
8	0x3bfb9b28	0.007678408
9	0x3d7bb8f9	0.0614557
10	0x3dbd5558	0.09244794
11	0x3d1cdc52	0.03829605
12	0x3d20512f	0.039139923
13	0x3c79a89a	0.015237952
14	0xbcb4993c	-0.022045724
15	0xbcb52354	-0.022111572
16	0xbd44e0fa	-0.048066117
17	0xbda2261a	-0.079174235
18	0xbd18c338	-0.03729555
19	0x3dc12fa6	0.09432916
20	0x3d26878f	0.040656622
21	0xbb69dd8c	-0.003568503
22	0xbccb868e	-0.024844434
23	0x3d9b2d90	0.0757705
24	0x3c85864d	0.016299391
25	0xbb82fd60	-0.00399749
26	0xbc2fa89f	-0.010721355
27	0x3e2202d3	0.1582139
28	0x3c90dd8a	0.017683763
29	0xbb8c0656	-0.0042732162
30	0xbcbe2237	-0.023209674
31	0x3c6e7720	0.014554769
32	0x3d4b2ba3	0.049602162
33	0xbb8b19a9	-0.0042450023
34	0x3d17f7e3	0.037101638
35	0x3d8ea99b	0.069659434
36	0xbd8a013f	-0.06738519
37	0xbc674fdd	-0.014118162
38	0xbdcaa54c	-0.09894809
39	0xbe8efe9a	-0.2792862
40	0x3c407adc	0.011748042
41	0x3d27e416	0.040989004
42	0x3d0968a5	0.033547062
43	0xbb1031dd	-0.0022002377
44	0x3ed481c6	0.4150526
45	0x3b2492f2	0.0025112
46	0x3c6cca51	0.014452533
47	0xbdda7857	-0.10667484
48	0x3c28aa30	0.010294482
49	0xbcf42247	-0.029801501
50	0xbc9bc712	-0.019015823
51	0xbb3bb9e8	-0.0028644744
52	0xbd05d4fb	-0.032673817
53	0xbac0c18b	-0.0014706118
54	0x3cd24e28	0.025672033
55	0xbd7b944d	-0.061420728
56	0x3cd682be	0.02618539
57	0xbc8627ef	-0.016376464
58	0x3cff88af	0.031193106
59	0x3d87ec0f	0.066368215
60	0xbd9c54bc	-0.07633349
61	0xbb8e1080	-0.004335463
62	0xbcd7404c	-0.026275776
63	0x3bb35a26	0.005473393
64	0xbc7b70c2	-0.015346708
65	0x3eb984b6	0.36234063
66	0x3b868a47	0.0041058394
67	0x3c60f1c9	0.013729521
68	0x3d86e0c9	0.06585843
69	0xbcff3bca	-0.03115644
70	0x3c2eb15a	0.010662401
71	0x3cfe0647	0.031008853
72	0x3c8c2052	0.017105255
73	0x3c1ea70c	0.009683382
74	0x3d241885	0.040062446
75	0x3f005821	0.50134474
76	0x3d0763c0	0.033054113
77	0x3c1fab79	0.009745472
78	0x3dca4d63	0.098780416
79	0x3d9d857a	0.07691474
80	0xbca1a857	-0.019733591
81	0x3df234ba	0.11826463
82	0xbd363a6d	-0.044489313
83	0x3e9952ec	0.29946077
84	0xbcdbf230	-0.026848882
85	0xbce3bc35	-0.027799705
86	0xbb15b81d	-0.0022845336
87	0xbd0376d9	-0.032095764
88	0x3b913aa1	0.004432038
89	0xbae4dc5d	-0.0017460693
90	0xbcb67179	-0.022270905
91	0x3b0b86ca	0.0021290057
92	0xbcbc6e28	-0.023001745
93	0x3e4cd3ee	0.2000272
94	0xbcd3d0d7	-0.025856419
95	0x3ee197ed	0.44061223
96	0xbcbfcd26	-0.023413252
97	0x3d11f157	0.03563055
98	0xbc88177e	-0.016612764
99	0x3d3cc3f2	0.046085306
100	0xbd3c7f34	-0.046019748
101	0xb96267e7	-0.00021591746
102	0x3eb57ac7	0.35445234
103	0xbc93cdd3	-0.01804248
104	0xbc89001f	-0.01672369
105	0xbd45bb8b	-0.048274558
106	0x3c98839b	0.018617442
107	0xbdd47223	-0.10373332
108	0xb951c7d5	-0.00020006236
109	0xbbb19e05	-0.0054204487
110	0x3dd726e2	0.10505463
111	0xbcfed7cb	-0.031108757
112	0xbc990b72	-0.018682215
113	0xbc850497	-0.01623754
114	0x3bf81123	0.007570402
115	0xbb9a1679	-0.004702386
116	0xbc60ac52	-0.013712959
117	0xbd7ff19b	-0.062486272
118	0x3d35160f	0.04421049
119	0xb9e084ac	-0.00042823458
120	0x3e354347	0.17701446
121	0x3d45a10a	0.048249282
122	0x3a44b934	0.0007504404
123	0x3d5f648b	0.054539245
124	0xbb71bc13	-0.0036885783
125	0xbd765ba0	-0.060145974
126	0x3caac269	0.020844655
127	0xbba74278	-0.0051043592
128	0xbb9f0c40	-0.0048537552
129	0x3ca60184	0.020264395
130	0x3c5b070a	0.013368377
131	0xbd6d1c25	-0.05788817
132	0xbe2de5c8	-0.16982186
133	0xbd75dfee	-0.06002801
134	0x3d9a34c7	0.07529598
135	0xbddadc07	-0.10686498
136	0xbcc4f63c	-0.024043195
137	0xbce00482	-0.0273459
138	0xbc965992	-0.018353257
139	0xbccdca95	-0.025121013
140	0xbb16a86d	-0.0022988573
141	0x3d9e2074	0.07721034
142	0x3e84c26d	0.25929585
143	0x3cb25633	0.021769619
144	0x3c1d88c7	0.00961513
145	0x3cdc31eb	0.026879271
146	0xbb4b958c	-0.0031064479
147	0xbb105f30	-0.0022029392
148	0x3ca1067a	0.019656409
149	0xbc0c9cff	-0.008582353
150	0x3c16c7b7	0.009202889
151	0x3be5df76	0.007015164
152	0xbd8f58c4	-0.069993526
153	0x3d126419	0.03573999
154	0xbc9a5749	-0.018840449
155	0xbb138671	-0.0022510553
156	0xbce8397c	-0.028347723
157	0xbd599cb0	-0.053127944
158	0x39de3b31	0.0004238724
159	0x3b2bfe6a	0.0026244172
160	0x3cd4020f	0.025879888
161	0xbc4d89db	-0.012545074
162	0x3c5a7653	0.013333875
163	0x3ae53122	0.0017485956
164	0x3db33add	0.08751462
165	0x3b25d718	0.0025305208
166	0x3baf96d8	0.005358558
167	0x3d24f781	0.0402751
168	0x3e9d07f4	0.3067013
169	0xbcd04757	-0.025424642
170	0xbd57a480	-0.052647114
171	0x3e15a5a0	0.14613962
172	0x3cb59588	0.022166029
173	0x3e379d92	0.17931202
174	0xbc2aa8d4	-0.010416228
175	0xbc92a285	-0.017899761
176	0x3e9789f4	0.29597437
177	0x3cabdf97	0.02098064
178	0x3dcf6d08	0.10128218
179	0x3e15ecd7	0.14641128
180	0x3a546f17	0.0008103712
181	0x3cd12f18	0.025535151
182	0xbc90a3af	-0.017656175
183	0x3d1183c6	0.03552606
184	0x3e0d8e3b	0.13823788
185	0x3c867e7b	0.016417732
186	0x3d64c30d	0.055850077
187	0x3bb4d76e	0.0055188453
188	0x3e35b327	0.17744122
189	0x3c854163	0.01626653
190	0x3cf5db40	0.030011773
191	0xbc27c379	-0.010239475
192	0x3ba0c5d9	0.004906398
193	0xba5c5872	-0.00084055134
194	0xbdf91e02	-0.12163927
195	0xbe0cb43e	-0.13740632
196	0x3adcb700	0.0016839206
197	0xbc83e089	-0.016098278
198	0x3cae4cf4	0.021276928
199	0xbd2e0fd2	-0.042495556
200	0xbcff77c0	-0.031185031
201	0x3d40e329	0.047091637
202	0xbc85f6d2	-0.016353045
203	0xbc904f8b	-0.017616054
204	0x3c3a9202	0.01138735
205	0x3c6d3d51	0.014479951
206	0xbb900776	-0.0043954207
207	0xbb2a9a3b	-0.002603187
208	0xbc06f871	-0.008237944
209	0x3b6db34b	0.0036270197
210	0x3b24e24c	0.0025159298
211	0x3bf691fc	0.007524727
212	0x3d62bdfb	0.05535696
213	0xbcf28c05	-0.029607782
214	0xbe392c6c	-0.18083352
215	0x3dacbe59	0.084347434
216	0xbd08757d	-0.03331517
217	0xbd2b1d13	-0.041775774
218	0xbc0356cb	-0.0080162985
219	0x3cbe9f60	0.023269355
220	0x3e1a8278	0.15088832
221	0xbd35cc67	-0.044384386
222	0xbc7c9a9e	-0.015417723
223	0x3b7ac157	0.0038262212
224	0x3c3322f3	0.0109336255
225	0x3d4553ca	0.04817561
226	0xbc265373	-0.010151732
227	0xbc1e6201	-0.009666921
228	0x3cd5698f	0.02605131
229	0xbaccc02d	-0.0015621238
230	0xbc151a6a	-0.009100536
231	0x3c4eefd3	0.012630421
232	0x3c95c5bb	0.018282762
233	0xbc191061	-0.009342284
234	0xbc54720c	-0.012966644
235	0x3ce0c09c	0.027435593
236	0x39b55b60	0.0003459109
237	0xb982f8cb	-0.00024980897
238	0x3e0b6def	0.13616155
239	0x3ce34159	0.027741121
240	0x3ce19b21	0.027539792
241	0xbbda3086	-0.0066586165
242	0xbc05396e	-0.008131368
243	0x3d014731	0.031562034
244	0x3d69a2fb	0.057040196
245	0x3da8aad8	0.08235711
246	0x3e020b06	0.12699518
247	0xbb318989	-0.0027090034
248	0xbc831e0b	-0.016005537
249	0xbdb91638	-0.09037441
250	0x3c035c11	0.008017556
251	0xbbd86539	-0.0066038636
252	0x3dca2520	0.09870362
253	0x3c86950a	0.01642849
254	0xbd40541c	-0.046955213
255	0x3d748dc3	0.059705507

fc3.bias f4 [256]
0	0xba2e39d0	-0.0006646188
1	0xbbcec71e	-0.0063103577
2	0xbc6d3880	-0.014478803
3	0x3d2e83ec	0.04260628
4	0xbbc67380	-0.006056249
5	0xbd9fe092	-0.07806505
6	0x3b225b33	0.0024773597
7	0xb9ff7c61	-0.0004873006
8	0xbca35308	-0.019937053
9	0xbc09b450	-0.008404806
10	0x3c6b4d94	0.014361758
11	0xbc0d514d	-0.008625341
12	0xbc839b70	-0.01606533
13	0x3aff1e4d	0.0019463986
14	0x3d3188ce	0.043343358
15	0xbc196b33	-0.009363937
16	0xbb1666f7	-0.0022949555
17	0xbca6b588	-0.020350233
18	0xbcb0b89c	-0.021572404
19	0xbc487e18	-0.012237094
20	0xbd45a1d9	-0.048250053
21	0x3d04adac	0.03239219
22	0xbb9da51d	-0.004810943
23	0xbce68aba	-0.028142322
24	0xbc0f09d6	-0.008730372
25	0xbb46f708	-0.0030359644
26	0xbc52bb15	-0.012861987
27	0xbcbf5de2	-0.023360197
28	0xbd1965a4	-0.037450448
29	0xbbe53f5a	-0.0069960775
30	0x3cd7ae02	0.02632809
31	0xbd415e32	-0.047208972
32	0xbb209992	-0.0024505598
33	0xbb07d40a	-0.002072575
34	0x3d9f3c6d	0.07775197
35	0xbcf9bc06	-0.030485164
36	0xbcaffc79	-0.021482693
37	0x3c04a354	0.008095581
38	0xbc895a7e	-0.016766783
39	0xbc8f4757	-0.017490072
40	0xbc18401d	-0.00929263
41	0x3cb0941d	0.021555
42	0x3c96e4a3	0.01841957
43	0xbc9d2373	-0.019181943
44	0xbcb8add4	-0.022543825
45	0x3d30c725	0.04315867
46	0xbcb3e44d	-0.021959448
47	0xba391841	-0.0007060804
48	0x3cf602c2	0.030030612
49	0x3d33d7b1	0.04390687
50	0xbc1a3c17	-0.009413741
51	0xbcaad4fb	-0.02085351
52	0xbd95b4e9	-0.073098965
53	0x3d66753c	0.056264147
54	0xbcac7401	-0.021051409
55	0xbd230a6d	-0.039804865
56	0xbc877a83	-0.01653791
57	0x3b8e3796	0.0043401225
58	0x3b7d0d45	0.0038612646
59	0xbd01b09a	-0.03166256
60	0xbb126282	-0.0022336547
61	0xba7c16a6	-0.0009616412
62	0x3cd5efd1	0.02611533
63	0xbd0bab4f	-0.03409892
64	0xbbaa81b2	-0.005203449
65	0xbc92956e	-0.01789352
66	0x3c2ee203	0.010674003
67	0x3cfa8301	0.030580046
68	0x3c1d150c	0.0095875375
69	0x3d8eb952	0.06968941
70	0x3b0ab671	0.0021165872
71	0xbc45ca67	-0.012072182
72	0xbc7e27cd	-0.015512419
73	0xbbc2c9bd	-0.0059444592
74	0xbdacbdfc	-0.08434674
75	0xbc1e92e5	-0.009678577
76	0xbc8b8348	-0.017030373
77	0xbc2f4fce	-0.010700179
78	0xbd4a92b7	-0.049456324
79	0xbc3a36e8	-0.01136563
80	0x3d1f49a1	0.038888577
81	0xbc22cc27	-0.009936369
82	0xbbc6b6a8	-0.006064255
83	0xbc215635	-0.0098472135
84	0xbc532a7c	-0.012888547
85	0xbc80bd5d	-0.015715295
86	0x3d27e72c	0.040991947
87	0xbc6f7607	-0.014615542
88	0xbcbd07ce	-0.02307501
89	0xbcf4e784	-0.029895552
90	0x3caac5be	0.020846244
91	0xbc420f90	-0.011844531
92	0xbd4608c3	-0.0483482
93	0x3c408ba1	0.01175204
94	0x3d20306b	0.039108675
95	0x3e0ab6a7	0.13546239
96	0xbb807897	-0.0039206254
97	0xbac638c7	-0.0015123122
98	0xbbf76e2f	-0.0075509767
99	0xbc2c714f	-0.010525062
100	0xbaa00c7f	-0.0012210755
101	0x3cd23174	0.025658347
102	0xbcc2a8ea	-0.023762185
103	0x3b46980e	0.0030303034
104	0xbd1cb441	-0.03825784
105	0xbbade011	-0.005306252
106	0xbdb6de82	-0.08929159
107	0x3d925a60	0.07146144
108	0xbbb8fd3b	-0.005645422
109	0x3da14616	0.07874696
110	0xbc9987eb	-0.018741569
111	0xbdb8561a	-0.090007976
112	0x3d891465	0.06693343
113	0xbcea9ec5	-0.02864016
114	0xbc92402b	-0.017852863
115	0x3c67385a	0.014112556
116	0xbce9d8b4	-0.028545715
117	0xbc62445f	-0.013810246
118	0xbc858200	-0.01629734
119	0xbce81c88	-0.028333917
120	0xbbd599cb	-0.0065185777
121	0xbc947351	-0.018121393
122	0xbc9164ba	-0.017748225
123	0xbd15a4fc	-0.036534294
124	0x3b52141f	0.003205545
125	0xbd1ae200	-0.037813187
126	0xbcdd4e43	-0.027014857
127	0xbb17e54a	-0.0023177438
128	0x3cbe9b68	0.023267463
129	0x3d83cf85	0.064360656
130	0x3d42d246	0.047563814
131	0x3b9b40e5	0.0047379606
132	0xbc749b55	-0.014929612
133	0xbc89d360	-0.016824424
134	0xbc3a90cb	-0.01138706
135	0xbc17f53c	-0.009274777
136	0xbcfa3726	-0.030543875
137	0xbbcb59e3	-0.0062057837
138	0xbbb02b53	-0.0053762584
139	0xbc08bffc	-0.008346554
140	0xbc609972	-0.013708459
141	0xbc74c7a9	-0.014940181
142	0x3ba99973	0.0051757633
143	0xbbfba372	-0.0076793963
144	0xbcd4fe40	-0.026000142
145	0x3e5a6e60	0.21331167
146	0xbc1efbc5	-0.009703581
147	0xbc53ac32	-0.0129194725
148	0xbcd35e57	-0.02580182
149	0x3a921dff	0.0011147856
150	0xb8f84b07	-0.000118395365
151	0xbc73375f	-0.0148447445
152	0xbcbbf1a2	-0.022942368
153	0xbad47e10	-0.0016211886
154	0x3c7f4bc9	0.015582033
155	0x3c84be86	0.01620413
156	0x3cfbb5a8	0.030726269
157	0xbc49b768	-0.012311794
158	0xbce18097	-0.027527137
159	0xbb86348a	-0.0040956186
160	0x3ca886a5	0.020572016
161	0xbca5b07b	-0.020225754
162	0xbc0ecc4c	-0.0087157
163	0x3bca3de0	0.006171927
164	0xbc837a7a	-0.016049612
165	0xbcd19ae0	-0.025586545
166	0xbc0a13d0	-0.008427575
167	0xbd187034	-0.03721638
168	0xbbd1cfb0	-0.006402932
169	0xbd02f0c0	-0.03196788
170	0xbc2f2dde	-0.010692088
171	0xbabe447d	-0.0014516261
172	0xbc919c20	-0.017774642
173	0xbc9825b0	-0.018572658
174	0x3d96b217	0.07358187
175	0xbd2eb5c5	-0.042653818
176	0x3d26c1c2	0.040712126
177	0xbb89a62d	-0.004200718
178	0x3b0f7acc	0.002189326
179	0x3bd6ba28	0.0065529533
180	0xbc8cb7e6	-0.017177533
181	0xbc7e15fc	-0.015508171
182	0x3bc6747d	0.006056367
183	0x3bcaa88f	0.0061846445
184	0x3d06f88c	0.032951877
185	0xbb831794	-0.0040006135
186	0xbc4d0699	-0.01251378
187	0x3b2ccddd	0.0026367821
188	0x3c4fa147	0.012672729
189	0xbbe2cfee	-0.00692176
190	0xbb7c4674	-0.0038494142
191	0x3c423693	0.011853832
192	0xbc7fa736	-0.015603831
193	0x3d5166ea	0.051123537
194	0xbbf6ace1	-0.007527933
195	0xbcb4d598	-0.022074506
196	0xbd023bf3	-0.031795453
197	0x3d0ec96d	0.034860063
198	0xbcb65c58	-0.02226083
199	0xbc050d49	-0.008120843
200	0xbfe17596	-1.7614009
201	0xbbdb71d3	-0.0066969185
202	0x3cf441a8	0.029816464
203	0x3cd3b644	0.025843747
204	0xbb56d22f	-0.0032779088
205	0x3db27795	0.08714215
206	0xbc19809f	-0.009369045
207	0x3e6d3c4c	0.23167533
208	0xbc046c1d	-0.008082417
209	0x3c04bffb	0.008102412
210	0x3b2127e9	0.0024590439
211	0x3cb3f315	0.021966496
212	0x3d245945	0.040124197
213	0xbc077563	-0.008267733
214	0xbd6e0c6b	-0.05811731
215	0x3d1f0c69	0.038830195
216	0x3d0eacfe	0.034832947
217	0x3ceb7f3a	0.02874719
218	0xbb01b501	-0.0019791725
219	0xbc57dc9f	-0.013175159
220	0xbd3bdc1b	-0.045864206
221	0xbc8988cd	-0.016788865
222	0x3c98d5ed	0.018656695
223	0x3d7f2c83	0.06229831
224	0x3d22ee1f	0.03977787
225	0xbd1668d4	-0.036721066
226	0xbb1775b4	-0.0023110928
227	0xbc8e45b0	-0.017367214
228	0xbc02ddd3	-0.007987457
229	0xbb9012a9	-0.0043967557
230	0xbcdd2f67	-0.027000142
231	0x3d4c27b3	0.049842548
232	0x3c05f45a	0.008175934
233	0x3b384ab7	0.0028120705
234	0x3c0b0980	0.008486152
235	0x3b0f3538	0.002185179
236	0xbc68b974	-0.014204372
237	0xbc90bb1b	-0.017667344
238	0xbc4db4d8	-0.012555324
239	0x3ab221a8	0.0013590353
240	0x3ea4ca28	0.32185483
241	0x3cb61046	0.022224557
242	0xbcd6c338	-0.026216134
243	0xbcb78090	-0.02240017
244	0xbd364711	-0.044501368
245	0xbd1a4e46	-0.037672304
246	0xbcd51c40	-0.026014447
247	0x3b82c163	0.0039903386
248	0xbcc8cef5	-0.024512747
249	0x3cdec734	0.027194597
250	0xbc0e8d9d	-0.008700755
251	0x3bfe1024	0.007753389
252	0xbbb60019	-0.005554211
253	0xbc675892	-0.014120238
254	0xbb522152	-0.0032063317
255	0xbd34cb05	-0.044138927

branch1.weight f4 [32, 256]
0	0x3d90305b	0.07040473
1	0xbd48e811	-0.04904944
2	0xbab8c838	-0.0014097756
3	0x3db29f28	0.08721763
4	0xbbc99353	-0.0061515956
5	0xbc1eeb1f	-0.009699612
6	0x3d539619	0.051656816
7	0xbcdbde0c	-0.026839279
8	0xbc2856d5	-0.010274609
9	0x39c3b85a	0.0003733065
10	0x3d3a5b7b	0.0454974
11	0x3b4367ab	0.002981643
12	0x3adcb7ea	0.0016839479
13	0x3bd87998	0.006606292
14	0x3dc2355f	0.09482836
15	0x3c2418bb	0.010015662
16	0x39a14a64	0.00030763738
17	0x39606e82	0.00021403472
18	0xbd6108f4	-0.05494018
19	0xbb42ab43	-0.002970413
20	0x3c6be71b	0.014398362
21	0x3e0a3562	0.13496926
22	0xbc39dd26	-0.01134423
23	0xbd168ac7	-0.036753442
24	0xbc196aed	-0.009363872
25	0xbdc21d56	-0.09478252
26	0x3d5d7b34	0.054072574
27	0x3e3f31c2	0.18671325
28	0xbcac7615	-0.0210524
29	0x3d4d6fdb	0.0501555
30	0x3d555ea5	0.052092213
31	0xbcac1a06	-0.021008503
32	0x3be1f05d	0.0068951086
33	0xbdb547db	-0.08851596
34	0x3db4973d	0.08817909
35	0x3b8085a8	0.003922183
36	0xbc019013	-0.007907885
37	0x3d589116	0.05287274
38	0xbba6d812	-0.0050916756
39	0x3c33e747	0.010980434
40	0x3dc7f97e	0.09764384
41	0xbdcedf7d	-0.10101221
42	0x3dd1d5b2	0.10245837
43	0x3ad0d3e7	0.0015932292
44	0x3d97935b	0.07401153
45	0xbdd9fa78	-0.10643476
46	0xbce50ebb	-0.027961126
47	0xbba1fa27	-0.0049431506
48	0xbd9fa9fc	-0.07796094
49	0xbd33519f	-0.04377901
50	0x3bb4db6e	0.005519322
51	0xbd161f27	-0.036650803
52	0x3d871df6	0.065975115
53	0x3d247edf	0.040160056
54	0x3c36e2d5	0.011162479
55	0x3c539643	0.012914243
56	0x3bc42925	0.00598635
57	0x3a92a97b	0.0011189425
58	0xbd04750e	-0.032338195
59	0xbb6c47eb	-0.0036053609
60	0xbd222fad	-0.03959625
61	0x3d559458	0.052143425
62	0x3d613103	0.05497838
63	0xbc41aadc	-0.011820521
64	0xbc264ec4	-0.010150615
65	0xbd1ebcbd	-0.038754214
66	0xbc9020c4	-0.017593749
67	0xbd2716e3	-0.04079331
68	0xbd6bd7c9	-0.057578836
69	0x3d384f11	0.04499728
70	0x3b3c75a5	0.0028756645
71	0xbbb7bda1	-0.0056073223
72	0x3c28d4d4	0.010304648
73	0x3d7592c3	0.059954416
74	0xbb803b40	-0.003913313
75	0x3bcf9e3f	0.006336003
76	0xbc272c42	-0.010203423
77	0xbbee2e2d	-0.007268688
78	0xbb6e1b38	-0.0036332142
79	0xbd00d7d4	-0.03145583
80	0xbdb1a432	-0.08673896
81	0xbbed3969	-0.00723951
82	0xbbeec891	-0.007287093
83	0xbc1996f0	-0.009374365
84	0x3c910668	0.01770325
85	0x3bde6c37	0.0067878026
86	0xbd261988	-0.040551692
87	0xbc37a824	-0.011209521
88	0xbbd7b800	-0.006583214
89	0xbcc4e6e5	-0.02403588
90	0xbd6918df	-0.056908485
91	0x3c4a3ba7	0.012343324
92	0xbca0dad8	-0.019635603
93	0x3cc4e257	0.024033708
94	0xbd38c46f	-0.04510921
95	0x3d107090	0.035263598
96	0x3baa4daa	0.0051972466
97	0x3a98d35f	0.0011659673
98	0xbafebe3a	-0.0019435354
99	0xbc308fcb	-0.01077647
100	0xbbd709c1	-0.006562442
101	0xbc4befa7	-0.012447274
102	0x3ca68d08	0.02033092
103	0xbbb13a2b	-0.0054085455
104	0xbc702c1b	-0.014658953
105	0xbc108dce	-0.008822871
106	0x3c76c9d8	0.015062772
107	0xbd568d85	-0.052381057
108	0x3b64c6b3	0.0034908473
109	0xbda58aa9	-0.08083088
110	0x3d058bf0	0.032604158
111	0xbc270819	-0.010194802
112	0x3d9c07fa	0.07618709
113	0xba3c0963	-0.00071730296
114	0xbafc84b0	-0.0019265618
115	0x3e1e2fb4	0.15447885
116	0xbd229027	-0.039688256
117	0x3952e145	0.0002011108
118	0x3b7c76cc	0.0038522957
119	0xbca6033f	-0.02026522
120	0x3b741257	0.0037242377
121	0x3c460ba9	0.012087741
122	0x3c82c6ae	0.015963878
123	0xbd57c060	-0.052673697
124	0xbc1be2d1	-0.009514526
125	0xbbcf1ce3	-0.0063205822
126	0x3d097dbb	0.03356717
127	0x3d739f87	0.05947831
128	0x3e12e23e	0.14344117
129	0x3c35db35	0.011099626
130	0x3e10eb0a	0.1415216
131	0x3b79abc9	0.0038096777
132	0xbb255be6	-0.0025231778
133	0xbc7aacad	-0.015299958
134	0x3b91ebee	0.004453174
135	0x3ba96fdd	0.005170806
136	0xbd356614	-0.044286802
137	0x3b9c31ee	0.0047666943
138	0x3af4b440	0.0018669441
139	0x3c075c66	0.008261776
140	0xbb58804f	-0.0033035462
141	0xb817a6c4	-3.6156518e-05
142	0x3d279963	0.040917765
143	0xbba46a6a	-0.0050175684
144	0xb9aa0b8d	-0.00032433533
145	0xbdc2319d	-0.09482119
146	0x3b2c0060	0.002624534
147	0x3d7ef267	0.06224289
148	0x3d80d171	0.06289948
149	0x3af9995c	0.0019042897
150	0xbab5a4b6	-0.0013858292
151	0xbbf89b69	-0.0075868857
152	0x3ad8da24	0.0016544503
153	0x3c1d2701	0.009591819
154	0x3ddea8ab	0.108720146
155	0xbd1955ed	-0.03743546
156	0x3ddb2c38	0.107017934
157	0x3c693203	0.014233115
158	0x3d49dc9a	0.049282648
159	0x3c0f0c3b	0.008730943
160	0xbcd53719	-0.02602725
161	0x3cee393f	0.029080031
162	0xbb3da922	-0.0028939922
163	0x3d755256	0.059892975
164	0x3bffcaa4	0.007806139
165	0x3ce42dc8	0.027853861
166	0xba9db499	-0.0012031972
167	0x3d045371	0.03230614
168	0xbd8aef39	-0.06783909
169	0x3db9c416	0.090706035
170	0x3b249dde	0.002511851
171	0xbb1b2da7	-0.0023678334
172	0x3cb55f79	0.022140251
173	0xbd7258bc	-0.059166655
174	0xbd8b8996	-0.06813352
175	0xb8bd778e	-9.034491e-05
176	0xbdaa7f97	-0.08325117
177	0xbcd7e587	-0.026354564
178	0x3e5b1804	0.2139588
179	0x3bb9826f	0.005661301
180	0x3b7f4a5c	0.0038954234
181	0x3b1168c8	0.0022187699
182	0x3e3a942d	0.18220587
183	0xbd9a377e	-0.075301155
184	0xbdafedd8	-0.08590287
185	0x3b9c7084	0.004774155
186	0xbbcb7e17	-0.0062100994
187	0xbc057cb5	-0.008147408
188	0x3d1d7c50	0.03844863
189	0x3a14b421	0.0005672593
190	0x3af3a436	0.0018588367
191	0xbd91964e	-0.071087465
192	0xbb170c2a	-0.0023048022
193	0xbcd230c6	-0.025658023
194	0x3baa55c1	0.005198211
195	0xbdd828e4	-0.10554674
196	0x3bc1984d	0.0059080482
197	0xbde59f20	-0.11211991
198	0x3b2a5787	0.0025992112
199	0xba2af836	-0.00065219717
200	0x3eebcc3f	0.46054265
201	0xbb774ee3	-0.003773623
202	0x3c5f6f55	0.0136373835
203	0xbc8cf221	-0.0172053
204	0xbd025ae6	-0.03182497
205	0xbc7e08df	-0.015505045
206	0x3c7ea1b7	0.0155414855
207	0x3b972398	0.0046123974
208	0x3c52063c	0.012818869
209	0x3cc2eb32	0.02379379
210	0x3d0a18a4	0.033714905
211	0x3cf504dc	0.029909544
212	0x3d8b36bd	0.0679755
213	0xbc073fad	-0.008254928
214	0x3cd33f27	0.02578695
215	0xbdc4e3d5	-0.09613768
216	0x3d73ff7a	0.059569813
217	0xbd3c31c0	-0.045945883
218	0xbbc7d609	-0.006098513
219	0xbcb644b1	-0.022249551
220	0x3d4480e0	0.047974467
221	0x3c52d24d	0.012867522
222	0xbd10cd77	-0.035352197
223	0x3d86d6ee	0.06583963
224	0xbda500f9	-0.08056826
225	0xbd893288	-0.06699091
226	0xbc1d04a7	-0.009583629
227	0xbbf297c2	-0.007403345
228	0x3a3fcd77	0.00073166884
229	0xbb856847	-0.0040712687
230	0xbca7023e	-0.020386811
231	0x3cfba498	0.030718133
232	0x3d86d4e9	0.06583578
233	0x3c25d1cb	0.010120819
234	0xbdb8b7d7	-0.0901944
235	0x3d052765	0.032508273
236	0x3bc6f99d	0.0060722367
237	0x3c815b52	0.015790615
238	0xbacbac9b	-0.0015539111
239	0xbdb4891e	-0.088152155
240	0xbe2379ec	-0.15964478
241	0x3cb25f2e	0.0217739
242	0xbc3b5689	-0.011434206
243	0xbc9813e7	-0.018564178
244	0x3cb75d0a	0.022383232
245	0xbd5c1e2d	-0.053739715
246	0x3c067169	0.00820575
247	0x3d344b82	0.044017322
248	0xbd21c2c8	-0.0394924
249	0xbcaf07cc	-0.021366023
250	0xbb00ef63	-0.0019673936
251	0xbca2b9ea	-0.019864041
252	0x3bf6d1d3	0.007532337
253	0x3b0dbf03	0.0021628744
254	0xbd65debc	-0.05612062
255	0xbc740829	-0.014894524

branch1.bias f4 [32]
0	0xbd90e8f5	-0.07075683
1	0x3ce325d0	0.027727991
2	0x3c71fe4c	0.014770102
3	0x3cfee0d6	0.03111307
4	0xbc743df9	-0.014907354
5	0x3cb8e439	0.022569763
6	0xbbbe357a	-0.0058047147
7	0x3db3bd12	0.08776297
8	0x3a0e3aaf	0.00054256147
9	0x3c8ffc52	0.01757637
10	0xbc5c5d35	-0.013449957
11	0xbd552ba6	-0.05204358
12	0x3d61c7f8	0.055122346
13	0x3d194909	0.037423167
14	0x3cf284ed	0.0296044
15	0x3d1553b9	0.036456797
16	0x3d533016	0.05155953
17	0xbcbfaa71	-0.023396702
18	0xbe3d8d70	-0.18510985
19	0xbd07c801	-0.033149723
20	0x3de60400	0.11231232
21	0xbc21cbed	-0.00987528
22	0x3c97ad9b	0.018515399
23	0x3ca74f59	0.020423578
24	0x3db70ead	0.08938346
25	0x3c818097	0.015808387
26	0xbd9fe012	-0.0780641
27	0xbcef88da	-0.02924006
28	0xbe05e79d	-0.13076635
29	0xbdd70e49	-0.105007716
30	0x3ca5915a	0.02021091
31	0x3c7d7a2b	0.015471022
