data_util/face_disentangle_3dmm/pretrained_models/64_32/cat_ckpt.pth (torch, 265445 bytes, 6 tensors)

fc1.weight f4 [128, 96]
000000 b2 9a b8 ba 53 47 59 3d 83 8a a2 3d 07 72 08 be
       -0.0014084189 0.053046536 0.07936575 -0.13324748
000010 97 80 10 bd 50 32 55 bc 2f fa 47 3d 5f 04 33 3d
       -0.035278883 -0.013012484 0.048822578 0.04370534
000020 68 ff c1 bd ff cf c3 bc 5a 13 c4 bc ff d2 bc bc
       -0.09472543 -0.023902891 -0.023935009 -0.02304983
000030 76 b9 f6 bb 97 86 bc bd 69 e8 6f be 75 d0 1f be
       -0.007529433 -0.092053585 -0.23428501 -0.15606864
000040 71 01 3c bc 4b 49 74 3d 1d 46 6b 3d f8 9b ac ba
       -0.011474953 0.05964021 0.057439912 -0.0013169041
000050 81 a6 66 bc 28 8a 83 3c 5d 5e 5e 3d 86 29 72 bd
       -0.014077784 0.016057089 0.05428921 -0.05912163
000060 82 2c 92 bc 9c 83 e5 3c 76 41 87 3e 42 9f e5 bc
       -0.017843489 0.028016858 0.2641713 -0.028030042
000070 77 e0 b4 3c c9 2b dd 3c 6a fe 80 3e 7f 57 81 bd
       0.02207969 0.026998417 0.25194103 -0.06315517
000080 a2 7d 0f 3d ab ce e4 bd 06 d8 80 bc 7b a1 13 be
       0.035031922 -0.11172231 -0.015728008 -0.14417069
000090 c0 fd bc bb e9 c6 db ba bd 96 4e be a6 61 08 3d
       -0.005767554 -0.0016767654 -0.2017469 0.03329625
0000a0 6e 3a 96 3d 2f 2b 96 3c 7c e2 c5 3c 39 eb 8b bd
       0.07335363 0.018331138 0.024155848 -0.068319745
0000b0 5a 54 7b bd 9f 79 d0 bd 12 2e d7 bd 15 16 3e 3d
       -0.06135974 -0.101794474 -0.10506834 0.046407778
0000c0 4d 21 3d bd 9f 0e 50 be c2 10 44 3e 59 31 3c 3d
       -0.046174336 -0.20318078 0.19147018 0.0459455
0000d0 aa 5e 05 3d 2f 4d c7 3d f0 78 8c 3d c5 c8 ae 3c
       0.03256098 0.097315185 0.068590045 0.021335969
0000e0 18 05 ef bd cc c0 af 3d 8e 63 92 bb 04 e0 9b 3c
       -0.116708934 0.08581695 -0.0044674342 0.019027717
0000f0 9e 31 44 3a 83 0d 48 bd 1e 24 3a be e2 e7 c1 3d
       0.00074842 -0.04884101 -0.1817784 0.09468056
000100 ac 41 26 3e a3 db 30 be 50 9f bf 3e 9f a2 5e be
       0.1623599 -0.17271285 0.37426233 -0.21741723
000110 27 ce 8e 3d 7c 80 48 bd a4 04 f8 3c 5c 09 4a 3d
       0.06972914 -0.048950657 0.03027565 0.049325332
000120 2d 40 64 bd 64 19 a3 3d 03 72 bc bd 32 d5 82 bd
       -0.055725265 0.07963827 -0.092014335 -0.0638832
000130 90 ed 2d bd e5 e1 78 3c d2 d6 62 3b ab 26 c4 3c
       -0.042462885 0.015190576 0.0034612906 0.02394422
000140 19 06 6a 3b 20 e8 25 bc 6d 15 06 bd cb 0d f9 bc
       0.00357092 -0.010126144 -0.032735277 -0.030402085
000150 b1 74 a0 bc 52 05 dc 3d 39 95 99 bd d6 ac b0 bc
       -0.019586893 0.10743202 -0.07499165 -0.02156679
000160 08 dc 01 3c 9f ee 24 be bb 50 78 3d ef 37 4c 3d
       0.007925995 -0.16106652 0.060623866 0.04985803
000170 c0 9e 07 be 3f de 90 bc 3c aa bd bd 09 c8 06 be
       -0.13244152 -0.0176841 -0.09260985 -0.13162245
000180 ba 1e 43 be a3 be 25 bd 38 33 19 bd 04 a7 6e 3d
       -0.1905469 -0.04046501 -0.03740236 0.058264747
000190 b0 f2 0a 3d 0c 23 7e bd b8 07 63 be 11 af f7 3b
       0.03392285 -0.062045142 -0.22170913 0.0075587113
0001a0 d8 98 1c bd a7 4f 16 be b9 c7 1b 3c 6e 21 9f bb
       -0.0382317 -0.14678822 0.009508067 -0.00485628
0001b0 00 ba f7 bc e4 f6 16 3d f1 2e 7d bc ff 8b e8 3d
       -0.030240059 0.036856547 -0.015453086 0.11354827
0001c0 a5 fb 2a 3d 17 d5 11 3e e8 e5 64 bd 79 a0 e8 3d
       0.041743893 0.14241444 -0.05588332 0.11358733
0001d0 a4 dd 65 bc 82 64 1a 3d b3 0f 70 bd 87 f4 76 bc
       -0.014029894 0.037693508 -0.058608722 -0.015072948
0001e0 0e 6b 53 bc 06 4f 20 3d ce c4 7f bd 23 2e a3 bd
       -0.012903942 0.039137863 -0.062443547 -0.07967784
0001f0 43 4b c1 3d fb 20 25 3d 38 94 f5 bd 98 6c 1b bd
       0.09438183 0.040314656 -0.11991161 -0.03794536
000200 63 7b 65 3d 2c fa b0 3c d0 62 86 3d 80 e5 8a bd
       0.056025874 0.021603666 0.06561816 -0.06782055
000210 a0 0b 42 3d 10 2b 9e bd 9f c0 41 3d 64 06 33 3e
       0.047374368 -0.07723057 0.04730284 0.17482907
000220 6a ce 3f 3d 5b f1 3f 3e d3 10 36 bd 96 12 7d 3d
       0.04682771 0.18744414 -0.04444964 0.061785303
000230 a7 76 06 3e 31 3c 71 bb fd 47 a2 3d c7 22 98 3d
       0.131312 -0.0036809559 0.07923887 0.07428508
000240 69 e1 7b 3d f1 a5 84 bb 6d 9f a3 bd de 93 a4 3d
       0.061494265 -0.004048102 -0.079893924 0.08036016
000250 f4 68 48 bd 8a 62 14 bd e2 f7 a1 bd 4f e0 32 bd
       -0.048928216 -0.036226787 -0.07908608 -0.04367095
000260 7f 69 6e 3d d5 9f 97 ba 38 88 47 bd 1e f8 01 3e
       0.058206078 -0.0011568019 -0.048713893 0.12692305
000270 88 2c 9f 3c b9 71 02 bd 03 b0 b6 3b 74 d0 f3 bd
       0.019430414 -0.031846736 0.0055751815 -0.11904994
000280 94 58 cb 3d fc f0 fb be 1f b1 86 be 98 24 3d be
       0.09929004 -0.49207294 -0.26307008 -0.1847099
000290 50 8e 1a be 63 e5 7b 3b 60 a8 a1 bc c4 14 46 3c
       -0.1509335 0.0038436286 -0.019733608 0.012089912
0002a0 c4 d1 d1 bd 48 3c 92 be 5a af 45 be 90 a2 38 bb
       -0.10245088 -0.28561616 -0.19305173 -0.0028173067
0002b0 4d 08 25 bf 6f 27 1e be 2c ad 53 bc ab 93 4e 3e
       -0.6446579 -0.1544473 -0.012919705 0.20173518
0002c0 7c 19 f4 bc 2b 5b a7 3e 92 97 85 3c d8 f8 3c be
       -0.029797308 0.32686743 0.016307626 -0.18454301
0002d0 f2 68 17 3c 3d fb 05 3e d8 5b 3e 3e f1 ff f1 bc
       0.0092413295 0.13084121 0.18589723 -0.029540988
0002e0 fa 35 a9 3b 67 db e7 3c e8 21 ea 3d eb 50 a8 bd
       0.005163905 0.028302861 0.11432248 -0.08218559
0002f0 ab 29 a5 3d 88 02 e6 bd 77 ae 45 3d f0 d6 c1 bd
       0.08064588 -0.112309515 0.048262086 -0.09464824
000300 18 31 5b bd 75 66 21 3e 2d 32 82 be 5a 5e 53 bd
       -0.053513616 0.1576174 -0.25428906 -0.051603653
000310 6e 6e c3 3c 12 0d fb bd 9b c2 ad 3d bf ef fd bd
       0.023856368 -0.12258352 0.08484384 -0.123992436
000320 ac ce f6 3c 11 7a d7 3c 25 0f 7e 3d fb 73 eb bd
       0.030127846 0.026303323 0.06202616 -0.11496731
000330 da 76 34 bc 64 76 7c 3d bd 52 01 be 1e 0c 69 3e
       -0.011014665 0.061636344 -0.12629218 0.22758529
000340 39 6a 97 bc ab 87 7e 3d 3d 5f 6e 3c 2f 0b 52 bc
       -0.018483268 0.0621411 0.014549074 -0.012820049
000350 2e c3 bf bc 80 80 1b 3d 4a 1c c3 be 76 43 fd 3d
       -0.023408499 0.037964344 -0.3810752 0.12366383
000360 8a e9 3a be dc 51 fe bd 64 62 7b 3e ff d5 bb bd
       -0.1825315 -0.12417957 0.24549252 -0.09171676
000370 2c fe 52 bd 25 3b 23 bc d0 ad 94 be 26 ef 31 bd
       -0.05151193 -0.009962832 -0.29038858 -0.04344096
000380 1f 1b a6 bd c1 e0 dc 3c 21 f7 b8 3c 70 95 8c bb
       -0.08110642 0.02696264 0.022578778 -0.0042902753
000390 f4 b1 b1 3c d5 2b 4f bd 19 38 e4 3d 9e 52 68 3d
       0.0216913 -0.05057891 0.11143512 0.056719415
0003a0 89 77 45 bd 57 1d 8d bd 38 c0 7b bd a0 99 33 be
       -0.0482097 -0.06890362 -0.06146261 -0.17539072
0003b0 8c ee 04 3e 64 10 bf 3d 8d f0 42 be bd 19 33 3e
       0.12981623 0.09329298 -0.19037075 0.17490287
0003c0 3f 6e 16 bd b1 d3 d7 bd 03 ce ba 3d c8 7f 6b bd
       -0.036726233 -0.10538424 0.09121325 -0.05749491
0003d0 d9 7d db b5 19 48 e2 3d c9 26 0e bc 25 fc 3d bd
       -1.6353398e-06 0.11048908 -0.008676239 -0.046383042
0003e0 99 22 bd 3b 06 0d ba 3d 29 a7 6c bd f6 ce ce bb
       0.0057719466 0.09084515 -0.057776604 -0.0063112928
0003f0 28 7f 4a be a8 7a 02 bd 2d ad 44 be 41 60 34 3e
       -0.19775069 -0.031855255 -0.19206686 0.17614843

fc1.bias f4 [128]
000000 7e 15 ed 3d 1a 84 77 be 9f 33 21 3e e9 7d 91 3c
       0.11576365 -0.24171486 0.15742348 0.017760234
000010 08 68 c0 3d 9c 34 40 3d 42 29 a4 bc 86 60 08 bb
       0.093948424 0.046925172 -0.020039205 -0.0020809486
000020 59 58 56 3b d2 d2 c1 bc f9 3f e0 bb c4 c5 8f be
       0.0032706468 -0.023660097 -0.0068435636 -0.2808057
000030 fc 72 61 3c 59 01 55 3d 30 36 3f 3c fa f3 94 3d
       0.013760325 0.05200324 0.011670634 0.07273097
000040 36 76 a5 3d ee dc 65 bd dc 0e 9d 3c 70 49 8d bd
       0.080791876 -0.056118898 0.019172125 -0.06898773
000050 48 e0 76 3d fe f6 14 bb 34 7e 96 3d 74 00 e8 bc
       0.060272485 -0.0022730227 0.0734829 -0.028320529
000060 e7 39 54 3d 40 7a 9c bc 34 60 84 be 4e 8e 8b b9
       0.051813032 -0.019101262 -0.25854647 -0.0002661817
000070 14 56 d4 bd 47 56 96 3d e2 56 f1 bd 07 f2 2c 3c
       -0.103679806 0.07340675 -0.1178415 0.010555751
000080 16 3d 8d 3c ea b9 7f bd f0 37 91 be 9b d7 0b 3e
       0.017241042 -0.06243316 -0.2836299 0.13656466
000090 69 a5 25 3d e0 f1 c1 bd 09 6e e8 3d 61 30 c7 3d
       0.04044095 -0.09469962 0.113491125 0.097260244
0000a0 79 1f 88 bd 87 51 0a bd 30 cd 13 bb 14 3f fc bc
       -0.06646628 -0.033769157 -0.0022552721 -0.030791797
0000b0 21 5a ce be a5 a1 04 3d 49 7c 79 be 14 27 ca bd
       -0.40303138 0.03238072 -0.24363817 -0.09870735
0000c0 89 80 f7 3d 11 d8 f4 be 05 c1 ba 3d ab c3 cb bd
       0.12085063 -0.47821096 0.09118847 -0.0994943
0000d0 7b 5b 05 bd 8c 2c c3 3c 31 a8 05 3e 97 f5 d9 3d
       -0.032557946 0.023824953 0.13052441 0.10642546
0000e0 be 6a 51 3d 0b 45 95 bd 8c 02 d5 3d 41 c0 8c bc
       0.051127188 -0.072885595 0.104008764 -0.017181518
0000f0 6b 3c 3a be a1 d8 53 bd 15 f8 1e be 0e d2 1b 3d
       -0.1818711 -0.051720265 -0.15524323 0.03804212
000100 39 27 ab be 3b 49 4f bc c2 fb de be ab d2 7a 3d
       -0.33428362 -0.012651737 -0.4355145 0.061236065
000110 8c e3 2f bd 05 cb 85 be 59 9c cf 3d 04 ec 3f 3d
       -0.042941615 -0.26131454 0.10137243 0.04685594
000120 9d a5 73 3d f5 cb f5 3c f5 72 13 bd 44 ce 96 3d
       0.059484113 0.03000448 -0.035998303 0.07363561
000130 e5 33 22 3d bb ce 52 bd 1c db e2 3d b9 44 06 be
       0.03960027 -0.051466685 0.11076948 -0.13112153
000140 f7 d1 03 bc b6 eb e2 bd 9e 6d 35 be 76 2e 2a be
       -0.008045665 -0.110801145 -0.17717597 -0.16619286
000150 5c 1c 09 be 10 17 50 3d 5f ed 33 3c c5 bd 2d 3d
       -0.13389724 0.050803244 0.010981887 0.042417306
000160 8c ae f4 3d 08 65 2a bd e4 7a 80 3d e2 6d e5 be
       0.11947355 -0.041600257 0.062734395 -0.44810396
000170 3a 97 01 3d 10 89 38 bd 8b c1 95 bd 31 72 a0 bb
       0.03163836 -0.045052588 -0.07312306 -0.004896425
000180 d1 9f 73 3c c1 76 78 be c6 4d 15 3e 93 9d af be
       0.014869646 -0.24264051 0.1458045 -0.34299907
000190 f2 46 02 be bb a2 fd bd 69 27 28 3d 2c a1 57 be
       -0.12722376 -0.12384554 0.04105321 -0.21057576
0001a0 f2 02 a1 3d c9 7a bb 3d 3e b0 1e 3d b2 10 8b 3d
       0.0786189 0.09154279 0.038742296 0.06790294
0001b0 68 f7 ec be 07 7f 60 3c 14 c5 3a 3c 31 e3 13 bf
       -0.46282506 0.013702161 0.011399526 -0.5776854
0001c0 66 70 8a 3d b0 5e 5f 3d cb df 2e bc 44 a0 0e 3e
       0.067597196 0.05453366 -0.010673474 0.13928324
0001d0 f7 6f 1a 3b de 3a 79 3d 13 0b 93 3d a7 36 8f 3d
       0.0023565271 0.060847156 0.071798466 0.06992846
0001e0 7c c5 fd 3d 93 2c 9c bd af 23 42 bc bf a0 ac be
       0.12391183 -0.07625689 -0.011849328 -0.3371639
0001f0 0c a2 54 3c 78 1f f1 3d 54 12 8b be 09 ce 82 3d
       0.012978088 0.1177358 -0.2716242 0.06386954

fc2.weight f4 [256, 128]
000000 36 27 0a be c6 9f e6 bd 65 8f 03 3c 08 19 75 3c
       -0.1349152 -0.11260943 0.008029793 0.014959581
000010 30 ef 53 3d d5 c8 a6 bd c3 ad f3 bc 71 82 d9 3c
       0.05174178 -0.081437744 -0.029745942 0.026551457
000020 9d 94 b3 3d 25 9a 6a 3d 47 f9 2f 3d f9 e1 25 3d
       0.0876858 0.05727591 0.04296234 0.040498707
000030 42 07 74 3c b2 d8 53 bc a7 2f 9f 3d e0 5f 74 ba
       0.0148943085 -0.012930082 0.07772761 -0.0009322148
000040 6e be 9a bd 85 5c 89 3c e1 f2 83 3d 6c 6a 0f 3d
       -0.07555853 0.01676775 0.0644281 0.0350136
000050 3e a6 83 3d 6e 9a 02 bd 94 be 9a bb 35 f6 93 bc
       0.064281926 -0.031885557 -0.0047224257 -0.018061737
000060 45 f0 17 bd 8f 13 84 be 20 62 e6 3d c5 68 27 3e
       -0.037094373 -0.25796172 0.112491846 0.1634856
000070 a1 15 65 bd 71 43 a4 3c 09 66 27 be 81 02 cc bd
       -0.05592883 0.02005169 -0.16347517 -0.09961415
000080 6a da a4 3d 00 ba 70 bc ce 3a 9e 3d ae 09 3a bd
       0.08049472 -0.014692783 0.0772606 -0.045419388
000090 5e eb 17 bd 28 12 97 3c fa b4 d4 3c 0c cc 8f 3b
       -0.037089698 0.018441275 0.025965203 0.004388338
0000a0 6a 9e 02 3c 1d d4 dc 3a 5c e1 0b bd 41 03 a6 3e
       0.007972339 0.0016847883 -0.034150466 0.32424358
0000b0 56 c4 73 bb e6 94 d2 bd 6f d4 e3 bd 6d 15 7f bb
       -0.0037195883 -0.102823064 -0.11124503 -0.0038922683
0000c0 b0 43 06 3d bc d4 a1 3d 43 e1 a9 bc bf 03 99 3c
       0.032779396 0.07901904 -0.020737296 0.018678544
0000d0 d8 56 b8 bd 0d 62 e2 bc 22 62 5d 3c 11 82 25 3d
       -0.09000939 -0.027634645 0.013512166 0.040407244
0000e0 57 dc 2c be 48 5a 94 3f 2d c3 2b bc 0b 35 32 3c
       -0.16880928 1.1590052 -0.010483545 0.010876904
0000f0 93 b8 0c be a7 ca 57 bd 3a bf 56 3d 78 e9 10 3d
       -0.13742284 -0.0526835 0.05242846 0.035378903
000100 87 7a a2 3d d7 35 0c bd dc 88 9d bd c2 b6 1f bd
       0.079335265 -0.034231033 -0.076921195 -0.03899265
000110 7a f1 eb b9 84 8d 93 3d b1 35 c3 bd 16 c0 9a bd
       -0.00045002607 0.07204726 -0.09531725 -0.07556169
000120 4d 0d 01 be 93 7c af be b6 b2 e9 bc 8d 2e ae 3c
       -0.1260273 -0.3427473 -0.028527599 0.021262432
000130 db 98 ed bd 78 b9 cd 3d 3f 64 13 bb 43 0c 82 3c
       -0.116014205 0.10045141 -0.0022490171 0.015874987
000140 a6 bb 22 bb 83 75 08 bb 7b 4b 14 bd f2 a3 c5 bc
       -0.0024831085 -0.0020821996 -0.036204796 -0.024126027
000150 69 6f db ba 33 05 25 bb b5 d5 89 3c d7 53 c7 3d
       -0.0016741577 -0.00251801 0.016825536 0.09732788
000160 13 07 20 be 95 42 bc bc 6d 14 03 bd e5 cf 7b bc
       -0.15627699 -0.022980968 -0.0320019 -0.01536939
000170 89 87 48 3d df e1 4b 3e f4 f4 27 bb 70 a0 00 bd
       0.04895738 0.19910382 -0.0025628181 -0.031403005
000180 5e 0e 27 3e 03 dc 77 3d 07 2d 6b bc 39 ed c7 3c
       0.16314074 0.060512554 -0.014353997 0.024405109
000190 62 f4 cf bd d4 71 8e bc 18 86 78 bc 2f 70 97 bc
       -0.10154034 -0.017388262 -0.015168689 -0.01848611
0001a0 ad 4d bd bc bf e6 c8 3b 8b eb 12 3e 3c b8 ac ba
       -0.023108328 0.0061310227 0.14347665 -0.0013177465
0001b0 69 64 a7 3d 6f c2 5d bd 88 a7 1b 3d 35 d7 a5 3d
       0.081734486 -0.054140504 0.038001567 0.08097688
0001c0 6d 19 fd bc af 23 23 3c d3 5d f0 3b 1c 65 1d bd
       -0.030895913 0.009957238 0.0073354035 -0.038426504
0001d0 36 22 17 bd f0 65 96 3c b5 a2 5b bb 34 9b a0 3d
       -0.03689786 0.018359154 -0.003351373 0.07842103
0001e0 21 ee 04 be b6 82 7c bd 4c 8b 8e 3e b2 d9 23 3e
       -0.12981464 -0.061648093 0.2784065 0.16001013
0001f0 0e e3 2a be 5a 78 7b bd fb 4b 31 3d d6 60 2a bd
       -0.16688177 -0.061394073 0.04328535 -0.041596256
000200 31 f7 15 bd 6a 43 fe bd 2a 16 37 3d 8f 0e c6 bd
       -0.036612693 -0.12415202 0.04469887 -0.096707456
000210 35 7d 86 bd 15 de c2 3d 56 ce 8b 3d c0 eb 27 be
       -0.0656685 0.09515015 0.06826465 -0.16398525
000220 a8 f5 ee bd 5d 8d 02 bf 27 72 a9 bd 39 ab 4d bd
       -0.11667949 -0.50996953 -0.08273726 -0.05021212
000230 ad 10 b4 ba 75 ed 4a 3d ee 65 1e 3d 0d 4e 03 bd
       -0.001373788 0.049542863 0.038671426 -0.032056857
000240 cf 20 0f 3c 9b e4 3a 3c fc 76 9d bd 0b 78 8d 3d
       0.0087358495 0.011407043 -0.0768871 0.06907662
000250 c9 80 51 3d 2b 09 8b 3d 53 bf 3b bd 86 c5 e6 3b
       0.05114821 0.06788858 -0.045836758 0.0070425896
000260 4c ad cd bd 2d 75 5f c0 a8 e3 a4 ba 78 1d 31 3b
       -0.100428194 -3.4915268 -0.0012580054 0.0027025621
000270 dd 8f d5 3c 4a 1e 01 be a1 29 1e bd 1e 6a a4 bc
       0.026069576 -0.1260921 -0.03861392 -0.020070132
000280 0a 70 41 3d 27 9f 38 3d b5 ab ab 3c df cb b8 bd
       0.04722599 0.045073655 0.0209559 -0.0902326
000290 cc bd d7 bd 37 9e 93 3d 04 d6 87 bd 21 ea 38 bc
       -0.10534248 0.072079115 -0.06632617 -0.011286289
0002a0 1c eb 67 bd 4c 40 0e be 1b 8d d6 bd 33 88 ab bd
       -0.056620702 -0.13891715 -0.104761325 -0.08375587
0002b0 35 d0 13 be 54 48 36 3b 57 76 42 bb 2c b4 1f bc
       -0.14434893 0.0027814107 -0.0029672587 -0.009747546
0002c0 6e d1 97 3d 41 db 0d 3d 15 e6 0c bd f5 8e 5e 3c
       0.074129924 0.034632925 -0.03439911 0.013583888
0002d0 2f aa 7c 3d 0e e9 5a 3e a2 96 87 3a e9 72 25 bc
       0.061685737 0.21377966 0.0010344575 -0.0100981975
0002e0 48 e4 0c 3e b0 ed a7 bd d0 fc 4f 3e 7c 28 d2 3e
       0.13758957 -0.08199632 0.20311284 0.41046512
0002f0 7a ba 1c bb c8 8f 68 3c 37 d8 eb 3c b4 f8 77 bd
       -0.002391486 0.014194436 0.028789623 -0.060539916
000300 30 e2 02 3d 9e b2 13 3f 9c 41 b2 3c ff d6 bb 3c
       0.03195399 0.57694423 0.0217598 0.022929667
000310 5d 5d 5d bd 1c f0 6a bc b1 dc 6f 3d e9 34 5c 3d
       -0.054044116 -0.014339473 0.058560077 0.053761397
000320 74 f4 1d 3c 62 e8 a0 3d 68 d8 1f bc ab 4b 95 bd
       0.009640802 0.078568235 -0.009756185 -0.07289823
000330 54 16 a7 3d a2 1e 7d bd 4a 93 cf 3c f4 46 bf bc
       0.081585556 -0.06179679 0.025338788 -0.023349263
000340 42 18 c0 bc 89 f9 cb bc db 81 55 3b c0 b8 27 3c
       -0.023449067 -0.024899261 0.003257862 0.010236919
000350 41 85 b4 3c f3 3f 3c bd 58 4b d7 bd e2 b9 83 bc
       0.022036197 -0.045959424 -0.105124176 -0.016079847
000360 69 63 36 3d 81 14 85 be 45 e1 17 3d b5 ec 6a bd
       0.0445284 -0.25992206 0.03708007 -0.057354648
000370 c9 5e 6e bd ac 93 0e be fb d7 8c 3d 8e 8e de 3d
       -0.058195863 -0.1392352 0.068771325 0.10867034
000380 5a a5 23 3d 3e 58 25 3d 63 d5 35 bd f4 9d 2e 3d
       0.039952613 0.040367357 -0.044392955 0.042631105
000390 6f 0a ec b9 50 f9 b2 3b 4a f2 19 3e 0c 4f 85 3c
       -0.000450212 0.0054618493 0.15033832 0.016273044
0003a0 d2 1e 81 bd 08 ce a5 3c b4 99 38 b9 f2 b7 7a bc
       -0.06304707 0.020239845 -0.00017604866 -0.015302645
0003b0 03 e0 77 3d 5b 13 ab 3d df bd 53 bd ac 08 0e 3d
       0.06051637 0.08353301 -0.051694747 0.03467624
0003c0 1c 3e 8f bd 28 30 6b 3d 47 aa 26 be a2 6a 83 3d
       -0.06994268 0.057418972 -0.16275893 0.06416823
0003d0 ae b9 cb be 85 18 10 bd c1 c8 5b bd 29 af 47 3c
       -0.397901 -0.035179634 -0.05365825 0.0121877575
0003e0 a9 23 80 3d 5b 78 0d 3d 33 72 a3 3d e9 84 cb 3d
       0.06256802 0.034538608 0.07980766 0.0993746
0003f0 59 37 c3 bb e8 e7 22 3d a4 3f a8 bc 58 bb 85 3d
       -0.0059575257 0.039771944 -0.020538159 0.065298736

fc2.bias f4 [256]
000000 70 ea c2 bd 22 32 f0 bb 00 58 1e bb 2d a7 80 3d
       -0.09517372 -0.007330195 -0.0024161339 0.06281886
000010 c6 e6 7a bc af fa 63 3b ad 08 e4 bc 41 b0 9d bb
       -0.01531381 0.003478687 -0.027836168 -0.004812271
000020 c9 69 3b bd 48 a3 cc bc 09 02 61 3b c5 9a 74 ba
       -0.04575518 -0.024980202 0.0034333488 -0.0009330924
000030 4c e2 85 3b 17 43 74 bc 94 22 2d bc 1f d5 95 bc
       0.0040858146 -0.014908574 -0.010567326 -0.0182901
000040 97 fd cf 3d e5 61 b6 bb 72 52 db bc 02 3c 57 3c
       0.1015579 -0.005565869 -0.026772711 0.013136866
000050 c4 88 43 bb fa e9 05 3d 3e 07 6b bc ce 1c 47 bc
       -0.0029836157 0.03269384 -0.014344988 -0.012152864
000060 48 7d 0c 3d 2f 78 88 3d c8 92 6f bc 4b 4f 92 bc
       0.034299165 0.06663548 -0.014622398 -0.017860075
000070 25 11 79 3e 1f 57 95 bc f8 a7 98 3d cb 5b 6a bc
       0.24322946 -0.01823002 0.074539125 -0.014304112
000080 79 18 92 bc 3e 2c ce 3d a8 b1 82 bc 98 b8 43 bd
       -0.017833935 0.10067032 -0.015953854 -0.047783464
000090 d2 c5 0a 3c 72 ff 43 bc 88 7b 65 3d 3a ea 00 bc
       0.008470016 -0.011962758 0.05602601 -0.007868344
0000a0 0e 56 49 bc 93 9a 28 3e af 10 61 3d e8 85 b5 3b
       -0.012288583 0.16465215 0.05494755 0.0055396445
0000b0 4b 3a 18 bc 32 b4 8a 3e f2 6b f5 bb 39 67 04 3d
       -0.009291242 0.27090603 -0.0074896747 0.032325003
0000c0 1c 8f 89 bc 26 23 9c bc 0b 02 35 3c 4d b3 31 bc
       -0.016791873 -0.019059729 0.01104785 -0.010845971
0000d0 8e 1b 6d bc 53 a4 23 3c e0 46 7f bc 3c 1c bc bb
       -0.014471902 0.009987908 -0.015580863 -0.0057406705
0000e0 c2 51 c1 bc f9 a7 3d be 71 aa d7 bd e8 93 93 bd
       -0.023598555 -0.18521108 -0.10530556 -0.07205945
0000f0 dd 4b 18 be 92 d1 f2 bc fd 4e b7 3b ba 5c 9d bc
       -0.1487269 -0.029640947 0.005594133 -0.019209255
000100 c4 3c d8 bc 0d c5 8b bd 25 8c e5 bc 31 f0 4e 3d
       -0.026396163 -0.06824694 -0.028020928 0.050522033
000110 0a e1 f6 bc 79 7a cd 3b 87 9d eb bb 4d 4b 96 3d
       -0.030136604 0.0062707034 -0.0071904096 0.07338581
000120 75 ce 73 3d 4a 3b 5f 3b 56 f5 28 bc ca 9e 93 bc
       0.059523065 0.0034062439 -0.010312399 -0.018020052
000130 18 69 9d bc f1 03 97 3c 9c 6d 3d bb aa c2 b3 bc
       -0.019215152 0.018434497 -0.0028904444 -0.021943409
000140 4d 81 1b 3c a3 f7 2e bc af 7b c8 bc 7b b3 a3 bc
       0.009491277 -0.010679158 -0.02447304 -0.019983044
000150 26 ee 43 3d 82 ef cb 3c 0d cc 45 3e 81 bd 12 bd
       0.047834538 0.02489448 0.1931612 -0.035825256
000160 3a 69 41 bc 2f 49 0c bb 77 1a 7c bc 02 31 d2 3a
       -0.011804873 -0.0021405926 -0.015387169 0.0016036334
000170 07 8a e9 3d b9 54 2a 3e ec a7 1d be a8 14 18 bc
       0.1140328 0.16633882 -0.15396088 -0.009282269
000180 98 27 1b bc 6b b3 31 be d2 c6 e0 3d a4 a1 4a 3b
       -0.009469889 -0.17353599 0.10975422 0.00309191
000190 59 0b 96 bc 82 64 63 3d 2c 4e 47 3e ee 08 94 3d
       -0.018315958 0.055515774 0.19463414 0.07228266
0001a0 e7 e4 3e bd e1 7a 56 3e 5f 35 e4 3d 15 a0 0f bd
       -0.046605017 0.20945312 0.11142992 -0.035064775
0001b0 f4 03 ab bb 28 f0 95 3b 56 20 0b 3d ba 08 83 bd
       -0.005218977 0.004575748 0.033966385 -0.06398149
0001c0 f9 b6 96 39 9c 9c 90 3c f2 3c 7d bd 74 b6 02 bc
       0.00028746555 0.017652802 -0.0618257 -0.0079780705
0001d0 03 2c 04 3c 13 16 62 bc ae 3b 24 3b 26 dd 89 3d
       0.008067134 -0.013799208 0.0025059986 0.06731634
0001e0 0b e0 91 bc 3d cd 1d bc 6d b1 8c bc a5 4f 48 bc
       -0.017807027 -0.009631452 -0.017174447 -0.01222602
0001f0 61 17 09 bc a4 42 a7 bc f1 40 3e 3d 83 8c 37 3d
       -0.00836739 -0.020417519 0.04644865 0.044811737
000200 88 b6 03 3c 96 d4 69 3d 46 4f b4 ba e8 55 66 bc
       0.008039124 0.057087503 -0.0013756535 -0.014058568
000210 75 ab 8d 3d 48 71 98 3b 2c f4 e7 bc 76 9e 08 39
       0.069174685 0.004652176 -0.028314672 0.00013029002
000220 33 25 58 bc c8 88 c7 3d a2 14 fd 3d 18 16 ed 3d
       -0.013192463 0.09742886 0.12357451 0.1157648
000230 75 ce c7 bb 6a a8 98 3d 3b 05 4a bc 59 09 ad bd
       -0.0060976096 0.074539974 -0.012330349 -0.084490485
000240 b6 35 35 3d 81 08 20 bc 7c aa 1a bd e4 82 b5 bc
       0.044240676 -0.0097676525 -0.037760243 -0.02215714
000250 f8 68 12 bc ef 52 eb 3d 81 1a 38 3d 3f 3c a9 3c
       -0.008936159 0.11490428 0.04494715 0.02065861
000260 94 87 2f bd 79 9d d6 bc 50 9a 8f 3c 34 10 45 bc
       -0.042853907 -0.026198136 0.017529637 -0.012027789
000270 22 2d b3 3c 7c 87 2f bc 7a 1c d6 3d ca 66 92 3c
       0.021872107 -0.010713454 0.1045465 0.01787128
000280 36 5d bc 3c f5 28 03 3d 81 7b 56 bb 14 39 22 bd
       0.022993665 0.03202148 -0.0032727423 -0.039605215
000290 66 1b 09 bc 9c a7 d7 3a 91 50 99 bc 80 14 83 bc
       -0.008368349 0.001645315 -0.018715175 -0.016000986
0002a0 b3 93 4f bb 98 d4 3c bc 40 e3 39 3d 84 44 86 bb
       -0.003167373 -0.011525296 0.045382738 -0.004097523
0002b0 24 8c 57 3d a3 6a c1 ba 3b 37 ec bd 33 aa da 3d
       0.052623883 -0.0014756512 -0.11533972 0.10676994
0002c0 bb 89 63 3d dc fb 68 3d 47 e1 bb 3b bf 33 07 3b
       0.055551272 0.056880817 0.0057336423 0.0020630208
0002d0 43 49 06 3d fd e6 29 3e 65 41 c2 3b 2a 76 82 bc
       0.03278471 0.16592021 0.005928206 -0.015925486
0002e0 c2 b1 ab 3d ab d0 50 3e cc 3d cc 3a 95 cb 6e 3c
       0.08383514 0.203921 0.0015582382 0.014574905
0002f0 44 17 d3 3b 25 6c 70 3d 0b 27 b3 bc 5a 8d 0d bd
       0.0064419825 0.058696885 -0.021869203 -0.03455863
000300 21 61 90 bc 2e a3 11 be 06 1e 8e bc 50 82 15 bc
       -0.01762444 -0.14222404 -0.0173483 -0.009125307
000310 65 fc b8 bc 78 a3 be bb a2 50 01 be 7e 31 ba bd
       -0.022581289 -0.005817827 -0.12628415 -0.09091471
000320 2b 81 25 3d f0 1d 93 3c 7e cc 8b bc c9 a2 ee bc
       0.040406387 0.017958611 -0.017065283 -0.029130356
000330 a5 14 93 3c 79 39 1d 3d ed 64 02 be 9f 0e 93 3d
       0.01795418 0.03838489 -0.12733813 0.07180523
000340 e7 56 cf bb 21 2f 89 bb 91 22 b3 bb 17 4b 21 bd
       -0.0063274982 -0.0041865264 -0.005466767 -0.039378252
000350 b2 4b a2 3c 90 f1 dc 3d 3a ce ae bb ea 43 a9 bc
       0.019811485 0.10788262 -0.0053346427 -0.020662267
000360 0e 3a 34 3d 30 05 88 bb 76 30 c7 ba 7f a4 11 3d
       0.044000678 -0.004151009 -0.0015196938 0.035557266
000370 f3 e9 ad bc 8b 5f 27 3c 6c 90 b4 3d 84 b4 8f bc
       -0.02122972 0.01021565 0.08816609 -0.017542131
000380 89 a8 34 3e 8b b2 c7 bd 2d 62 05 3d 76 85 37 be
       0.17642416 -0.09750851 0.03256433 -0.17922005
000390 0b 87 de 3c 28 a7 1b bd 88 d3 48 3d cf dd 79 3e
       0.027164003 -0.03800121 0.049029857 0.2440102
0003a0 4c c8 00 bc 3f a8 e9 3b 8e 13 58 bc 75 9a ad bc
       -0.0078602545 0.007130652 -0.013188256 -0.021191815
0003b0 94 e7 8b bc 1a 3d 58 bb 7b 7c 80 3a c6 79 80 3d
       -0.017078198 -0.0032995404 0.0009802723 0.062732264
0003c0 ba f5 07 ba bf 0d 84 3d ae 38 39 3c 2e 9a bd 3c
       -0.00051864574 0.06447934 0.011305017 0.023144808
0003d0 06 8d 64 3d 88 a9 cf ba 0b ff 44 3e 8b 4d 44 be
       0.055798553 -0.0015843371 0.19237916 -0.19170205
0003e0 14 96 4e bc ee 97 c1 bc e0 d5 c8 bc b2 ee 78 bb
       -0.012609024 -0.023632016 -0.024516046 -0.003798407
0003f0 20 db b8 bc ba 2a cb bc dc bb 40 bd 64 24 c1 bc
       -0.022565424 -0.024800647 -0.047054157 -0.023576923

fc3.weight f4 [79, 256]
000000 d0 35 93 3d 32 04 95 bb b7 1d 14 3c b5 d0 4e bc
       0.07187998 -0.0045476193 0.009040288 -0.012623002
000010 25 79 84 3c cd 94 b1 3b 94 45 4e bd 00 37 40 bc
       0.016171047 0.0054193498 -0.050359324 -0.011731863
000020 8e 6f c7 bc c3 02 35 3c 89 c7 ff 3b c3 e8 55 3a
       -0.024345186 0.011048022 0.007805769 0.00081599894
000030 cd 03 8a 3c 11 42 5f ba 95 85 6d 3a 7e 6b 25 ba
       0.016847515 -0.00085166196 0.0009060738 -0.0006310268
000040 f8 81 18 bd 03 ee 08 bc eb e8 08 3d 77 a5 af bc
       -0.037233323 -0.008357528 0.033425253 -0.021441204
000050 b2 80 60 b9 13 00 15 bd b2 12 44 3c 14 34 f3 ba
       -0.00021410247 -0.036377024 0.011967348 -0.0018554949
000060 4b 3a 6a bd 65 63 59 bb fc 1d b7 3a fe 8d 03 3c
       -0.0571845 -0.0033170816 0.0013970728 0.008029459
000070 e0 17 24 bd 77 3f 85 bb d3 36 8b bd 3a 93 47 bc
       -0.04006183 -0.0040664035 -0.06797566 -0.012181098
000080 67 9e f6 bb 82 1c 80 bd 53 39 3b 3a 0d fa 91 3a
       -0.0075262072 -0.062554374 0.0007142026 0.0011137143
000090 c0 8c 6a 3b ec 32 d2 3c e7 f8 60 bd eb 6d 6d b9
       0.003578946 0.025659047 -0.05492487 -0.00022643029
0000a0 f1 5e b7 bb 3b c5 7e bc 0a 3f 5b bc d9 a0 9d bc
       -0.0055960347 -0.015549953 -0.013381729 -0.019241737
0000b0 1f 3b 0d ba 20 42 41 bd ca 73 99 3c 2c bd 05 ba
       -0.0005387533 -0.047182202 0.01873197 -0.0005101736
0000c0 6c 57 05 bc e9 ee ae bc e7 d9 4a bc e6 11 9c 3b
       -0.008138519 -0.021354156 -0.0123810535 0.004762876
0000d0 1a 95 d5 bb 12 51 67 3c 5d 4f 78 ba 54 3d 83 3d
       -0.0065180184 0.01411845 -0.0009472275 0.06408182
0000e0 6e d4 9c bb 80 5e b3 3d a8 c6 a9 3d eb a1 7f bc
       -0.004786066 0.08758259 0.08289844 -0.015602569
0000f0 06 cf 95 3c c2 62 d3 3b 84 a4 df 3a 6e 90 49 3b
       0.018287193 0.006450982 0.0017062579 0.0030756253
000100 52 5b 44 3c 22 0f 65 3b 52 6f 52 ba c8 01 b8 3b
       0.011984663 0.0034951647 -0.0008027452 0.0056154467
000110 62 2c b0 3c 95 93 02 3c e1 b5 d1 3c b0 e7 4d bd
       0.021505538 0.007969757 0.025599422 -0.050269783
000120 05 7e 51 bd 76 98 d0 bb bb 94 8d 3c 7d 1a 26 3c
       -0.051145572 -0.006365831 0.017282834 0.010138151
000130 a2 b3 99 3c cd e3 09 bd 69 1b f2 bb c3 e2 46 3d
       0.018762413 -0.033664513 -0.0073885215 0.0485561
000140 c5 9d 2c 3d 59 97 70 b8 05 90 4b 3c 79 60 03 3a
       0.04214265 -5.7361412e-05 0.012424474 0.0005011629
000150 b6 f4 30 3c b2 29 03 3d 02 20 41 3d 6d 04 b5 3c
       0.010800531 0.032022186 0.047149666 0.022096837
000160 a4 73 0b bb 73 9e 10 bc f0 55 b8 3c 79 c7 fc 38
       -0.0021278644 -0.00882684 0.022501916 0.00012053451
000170 95 90 1a 3c 90 2f 57 bd df 0a f6 ba 3b 9e c2 bb
       0.009433885 -0.052535594 -0.001877155 -0.0059392727
000180 35 01 8b 3b 88 9b 91 3b 46 70 c3 bc dc 70 c2 b9
       0.0042420872 0.0044435896 -0.023857247 -0.0003708665
000190 43 62 89 3a 4d dd 44 ba b5 15 b6 bd 35 d6 77 bd
       0.0010481555 -0.0007509783 -0.08890859 -0.060507018
0001a0 fb 3e 79 3c 95 24 82 3d 66 6e 29 3c d5 26 56 bc
       0.01521277 0.06354634 0.010341262 -0.013070782
0001b0 dc 28 22 b9 b2 74 8c bd 51 f7 e3 ba 1b 71 8b bc
       -0.00015464745 -0.06858195 -0.0017392432 -0.017021706
0001c0 6f 65 93 3b cd ad 7b ba ea 14 d6 3a 5e 74 df bb
       0.004498176 -0.00096007885 0.0016333137 -0.006819292
0001d0 21 9b 73 bb 7a 71 6a 3d cf 30 97 3c 95 d2 08 bd
       -0.0037171321 0.057237126 0.018455891 -0.03340395
0001e0 33 af 09 3a 70 3b a3 bb 97 7e 21 bb 53 72 ba bc
       0.0005252242 -0.0049814507 -0.0024642104 -0.022759592
0001f0 56 e4 b5 38 e0 b7 34 bb 7b 38 4d bd c1 20 43 bd
       8.6732834e-05 -0.0027575418 -0.050102692 -0.04763866
000200 b4 61 85 ba 5d 96 62 3d 77 2f 27 ba bd af c5 3c
       -0.0010176213 0.05531918 -0.0006377617 0.02413165
000210 98 ba 5c 3c 81 e6 ce 3b c3 4f f1 3b 27 8e 29 3c
       0.013472222 0.0063140993 0.0073642447 0.010348833
000220 eb a1 38 3c 01 e5 3e bd 49 da 87 3b 0d c5 0b 3c
       0.011269073 -0.046605114 0.0041458947 0.008530867
000230 5f 70 c6 3c 94 06 c5 3c 53 52 cc bb d1 7f a5 ba
       0.024223505 0.024050988 -0.0062353997 -0.0012626593
000240 a3 69 0b 3b 15 ed b8 bb dd c5 83 3c ac 1a ae bb
       0.0021272681 -0.0056434968 0.01608556 -0.005313238
000250 60 0e a7 bb 41 cd 43 bc 32 4a 0f 3c 5d 43 ea 3b
       -0.005098149 -0.011950792 0.008745717 0.0071491436
000260 40 a4 1d bc 31 6b 1e 3c a5 ae e7 3c 27 a9 5f 3b
       -0.00962168 0.009669111 0.02828152 0.0034127922
000270 3a 73 c7 3b b0 e5 6f 3c 2f 35 e6 3c 61 62 1f bc
       0.006086734 0.014642164 0.028101532 -0.009728045
000280 69 ff af bb f0 6e b6 3b 2d fb 2d bd 71 3b 8a bc
       -0.0053710234 0.005567424 -0.042475868 -0.016874047
000290 71 28 94 3b 5b 6a 00 bc 28 78 28 3c 72 df 13 3c
       0.0045214226 -0.007837857 0.010282554 0.0090254415
0002a0 47 6d c0 bb 40 71 56 3a f1 d8 e4 3b 75 d3 b8 bb
       -0.005872402 0.0008180328 0.0069838692 -0.005640442
0002b0 d1 f1 a1 3c c5 04 63 3b 2c f3 d8 3d 73 df 1d bd
       0.019768627 0.0034640294 0.10593256 -0.038543176
0002c0 85 6b 60 bc 79 d2 3e bd a4 83 ac bc aa 36 13 bc
       -0.01369751 -0.04658744 -0.021058865 -0.008985201
0002d0 9b b9 57 3b e8 c9 ff bb 2f 43 22 3c 01 fe a3 3b
       0.0032917026 -0.0078060515 0.009903713 0.005004645
0002e0 28 98 81 b9 02 1f 3f 3b 19 7f 38 3b d8 86 0d bc
       -0.00024718163 0.002916277 0.0028151928 -0.008638106
0002f0 c1 78 0f bd 26 0d b4 bb c8 1a e6 bb f0 3a 92 bc
       -0.03502727 -0.0054947315 -0.0070222355 -0.01785037
000300 3c 03 33 bc a5 ad 5f bc 4c a9 2e bc 37 96 8c ba
       -0.010926064 -0.01365224 -0.010660481 -0.001072592
000310 52 cd 52 bc 58 6a 5c 3c b8 a6 51 3d 88 80 ac bc
       -0.012866335 0.013453089 0.051184386 -0.021057382
000320 ce 52 90 3b 15 cb be bc 46 07 3b bc 5d 8c 51 bd
       0.0044044023 -0.023290196 -0.011415308 -0.05115925
000330 db e9 25 bd f8 25 46 3d 26 ad 72 bc d2 14 f1 bb
       -0.040506225 0.048376054 -0.01481179 -0.0073572183
000340 65 40 22 ba f4 94 46 bc 1a f0 1b 3c ee b2 65 bb
       -0.0006189405 -0.012120474 0.009517694 -0.0035049277
000350 de bb 8b 3c c4 b7 cf bd 90 fa c7 bb df 57 3d bc
       0.017057355 -0.101424724 -0.0061028674 -0.011556595
000360 59 36 ec bc 50 81 2c 3b 67 09 14 3b 28 c4 a3 3c
       -0.028834509 0.0026322193 0.0022588612 0.019990996
000370 b5 3c ab 3b 94 56 14 bc 58 2a 81 bd 7a ab 1f 3c
       0.0052257427 -0.009053845 -0.063069046 0.009745473
000380 7b 56 81 bb a4 17 8a 3d 0f 0b a4 38 2f 82 33 3c
       -0.003947077 0.0674279 7.822189e-05 0.010956331
000390 ae f6 91 3b 27 31 9c bc 14 10 0e 3c a6 4b 28 bd
       0.0044544553 -0.019066406 0.0086708255 -0.04108777
0003a0 e5 00 b2 bc 97 c2 98 bb 02 28 c9 bc ce 05 c5 3a
       -0.021728942 -0.004661869 -0.02455521 0.0015031637
0003b0 51 a2 66 3b 60 0c 1f 3c fd d3 b4 bc fd de da bc
       0.0035191963 0.00970754 -0.02207374 -0.026717657
0003c0 30 c2 1c 3c 50 0a f5 3a 4b 42 b1 3c d6 8e 71 bc
       0.009567782 0.001869509 0.021638056 -0.014743527
0003d0 e3 3f c2 ba 3e a7 f2 3b cb e6 e4 bc ab e5 d4 bc
       -0.0014820065 0.0074051907 -0.027942082 -0.02598842
0003e0 d7 52 e3 3b b9 97 96 3c 2d 0a b3 3b 1a 95 b6 bb
       0.0069373655 0.018382894 0.0054638595 -0.0055719735
0003f0 bd 91 c3 bb 1d 74 2d bc 11 a8 3c 3c dc cd ff bb
       -0.005968301 -0.010586766 0.0115146795 -0.007806523

fc3.bias f4 [79]
000000 52 c3 28 be d5 4e d5 bc 03 7d 1b be ea 66 d6 3d
       -0.16480759 -0.026038567 -0.15184407 0.10468848
000010 8a 5a d5 3d ee 4a 4d be 16 fb 64 3d 23 f6 09 be
       0.104176596 -0.20048115 0.055903517 -0.134728
000020 39 85 71 bd d2 34 5e bd 7e 51 89 bd 89 c2 43 3d
       -0.05896494 -0.054249592 -0.067049965 0.047792945
000030 3c 89 02 bd 55 2f 33 be eb bc f2 bb 17 2e 82 ba
       -0.03186916 -0.17498524 -0.0074077747 -0.0009931949
000040 88 3a 09 bc 55 f6 79 3d b1 41 79 bc 70 80 cd bc
       -0.008375771 0.061025936 -0.015213416 -0.025085658
000050 7e d8 35 be 54 b6 b5 3d 9b 48 99 3d 4a ac 2f be
       -0.17758366 0.08872667 0.074845515 -0.17155567
000060 7c 7f 20 be 7d e1 a9 3d aa cf a1 bd 22 6a 37 3d
       -0.15673631 0.082949616 -0.07900937 0.04477895
000070 e9 0d 6f 3e 10 a0 3a 3e 5d ae 94 3d a9 6b 88 bd
       0.2334515 0.18225121 0.0725982 -0.066611595
000080 b7 bb 35 3c 5f 29 60 3d 60 b0 86 bd 53 89 c0 bd
       0.011092118 0.054726955 -0.065766096 -0.094011925
000090 3c 0b e5 bd ff 94 50 bd 7c 7c eb 3c 5f 37 35 3c
       -0.111837834 -0.050923344 0.028745882 0.011060565
0000a0 f9 81 0b 3e 43 90 fd bc 10 d0 99 bd ca c0 33 3e
       0.136238 -0.030952578 -0.07510388 0.17554012
0000b0 29 47 1b bd 9b e6 2a bd 70 3d 00 bd f6 00 e0 3d
       -0.03790966 -0.04172383 -0.03130859 0.10937683
0000c0 a0 34 4a 3d 3e 21 90 3c 05 b0 73 bd a7 ae 80 bc
       0.049366593 0.017593976 -0.059494037 -0.01570828
0000d0 7c b1 ca 3c dc 47 95 3b 0e 61 9d 3d 7d c2 41 bd
       0.024742834 0.0045556854 0.07684527 -0.04730462
0000e0 a0 25 cb 3a 72 1f c2 ba 05 c1 79 bd 0c d4 6e 3c
       0.0015498884 -0.0014810397 -0.060975093 0.014576923
0000f0 8a d7 8d bd 65 c4 ed bd f2 9f 30 3d 10 97 49 bd
       -0.069258764 -0.11609725 0.043121286 -0.04921633
000100 5c 63 85 be 27 90 8e 3d 9d 75 72 3d 4d b6 3d be
       -0.26052368 0.06961089 0.059194196 -0.18526573
000110 cc 21 3f 3d e7 f4 99 bd d7 c0 0e 3e 92 c3 6b 3d
       0.04666309 -0.075174145 0.1394075 0.057559557
000120 ad 2d 79 bd ac ce 8e 3d c9 20 3a bd a8 ae c7 bb
       -0.060834575 0.06973013 -0.045441423 -0.0060938187
000130 79 d9 b1 3d 4a c5 e5 bd 0d 57 c9 3d
       0.08684058 -0.112192705 0.09831057
