data_util/face_disentangle_3dmm/pretrained_models/64_32/dis_ckpt.pth (torch, 538569 bytes, 10 tensors)

fc1.weight f4 [128, 79]
000000 a3 bb d1 3c d7 9e 9a be 4a dd 5a be 40 29 f6 bd
       0.025602167 -0.3019931 -0.21373478 -0.120195866
000010 4c 68 7c bc 01 3c 2f 3e 10 a3 20 3c 22 8e 51 3d
       -0.015405726 0.17112733 0.009804502 0.05116094
000020 73 db 8c 3e 67 a4 aa 3e 82 42 85 3e e7 46 0c 3e
       0.27511176 0.33328554 0.26027304 0.13698922
000030 15 d9 93 bd 9b 2c 81 be 38 ba 6a 3c d4 49 d9 3d
       -0.072191395 -0.25229344 0.014326625 0.10609785
000040 ba b6 2a bd 2e dc d7 bd ac 7b df 3d aa 65 39 bd
       -0.041678168 -0.10540043 0.109122604 -0.04526297
000050 cd 85 bf bc a9 5e 5f 3d ca 0a ff bd a1 3d 51 bd
       -0.02337923 0.054533634 -0.1245323 -0.051084165
000060 86 49 1e 3b 8e bc 50 3b b1 6d 2f bd dd 04 43 3d
       0.002415271 0.0031850669 -0.04282922 0.04761206
000070 ea c4 23 bd a6 de 38 bc 12 5d 5b 3b d5 cb f1 3c
       -0.039982714 -0.011283552 0.0033472222 0.02951614
000080 ec 51 0b 3d 5c ff 25 3c 74 f0 bd bd c4 d9 24 3d
       0.034013674 0.010131683 -0.092743784 0.04024674
000090 46 0a e2 bc 6f 35 0f 3d 7c a9 8f bc 60 d9 bb 3c
       -0.02759279 0.034963068 -0.017536871 0.0229308
0000a0 5c 16 c2 bc 07 e8 aa bc 11 fe 91 bc 66 f1 31 bd
       -0.023692302 -0.020862592 -0.017821344 -0.043443106
0000b0 ef f9 12 bc 88 cd 63 3c 27 4f b4 3b 15 1f cf 3c
       -0.008970722 0.013903983 0.0055025998 0.025283376
0000c0 cd 68 e8 3b 56 3f 55 bb ec 37 85 3b 78 2d 47 bd
       0.0070925714 -0.0032538972 0.0040655043 -0.048627347
0000d0 cb 45 18 3c e1 65 d5 3c fb 4f 98 bc 93 7e b8 ba
       0.009293984 0.026049556 -0.018592825 -0.0014075808
0000e0 ea 53 76 bd 72 c1 49 3d 10 5a 13 ba ba 4c 87 bc
       -0.06013862 0.04925675 -0.00056210253 -0.016516078
0000f0 34 de 7a bb 5d 40 0c 3c b3 fd 62 bd b8 44 fc bc
       -0.0038279416 0.008560267 -0.055417728 -0.030794486
000100 cd 86 9e b9 c5 87 a0 3c 32 3b 43 3c 4f 20 cb 3b
       -0.00030236543 0.01959599 0.011915969 0.00619892
000110 ff 40 ca 3b b9 a2 c1 bc 65 1a 9d bc 46 8f fa 3b
       0.006172299 -0.023637163 -0.019177625 0.007646474
000120 2e f5 33 3b c6 75 15 3c 46 c0 10 3d 21 f2 da 3b
       0.002745937 0.009122318 0.035339616 0.006681696
000130 03 62 d1 bc fb df c0 bb 89 1b 8d bd d6 5a 24 be
       -0.025559431 -0.0058860756 -0.068900175 -0.16050276
000140 2b 7e 0d bc aa 7b 33 bd 49 38 92 3d c7 cb 86 bd
       -0.008636038 -0.043819107 0.07139642 -0.06581836
000150 05 ab 98 3d 47 03 35 3d de 00 ec 3b e9 4c 13 bd
       0.074544944 0.04419258 0.007202252 -0.03596202
000160 2b 0e 94 bc 3e 1c 9e 3c e1 70 a1 3d e0 66 e7 3d
       -0.018073162 0.019300576 0.07882858 0.11298919
000170 6c f8 2b 3e 9f 38 f4 bd 34 f2 47 3e 34 b5 a3 bd
       0.16793984 -0.11924862 0.19525987 -0.07993546
000180 f0 d4 60 bd 42 e1 5d 3d 7d fc a6 bd 0e 5e 3b 3c
       -0.054890573 0.0541699 -0.08153627 0.011435999
000190 60 b6 cd 3d a7 13 a3 3e b6 62 5f bd c5 35 9b be
       0.10044551 0.3185093 -0.054537497 -0.3031446
0001a0 fa 47 14 3c f1 3e 78 be 16 51 09 3d 43 2b 65 bd
       0.009050364 -0.2424276 0.033524595 -0.05594946
0001b0 1b 46 1d be 6e 4a 74 3c f4 04 ae bd 0d 80 3a 3e
       -0.15358774 0.014910324 -0.084970385 0.1821291
0001c0 f3 f8 c0 3d e2 1e 1a be 23 df 6c bd fd 41 14 bd
       0.09422483 -0.15050843 -0.057829987 -0.036195744
0001d0 e0 ca 49 bd 06 bb aa bd c5 1d 5d bb e5 b3 c5 3d
       -0.049265742 -0.08336453 -0.0033739668 0.09653453
0001e0 f7 54 0d 3e 1c 94 f3 3b 9e ae db bd 39 ab 89 bc
       0.13801943 0.0074334275 -0.10726665 -0.016805278
0001f0 31 f3 84 3d b3 ef e7 bd c1 2e be bc 1c 22 d1 ba
       0.064916976 -0.11325016 -0.023215653 -0.00159556
000200 63 95 1a bb a9 a6 81 bd 5e c0 f3 3c 39 57 3f bd
       -0.0023587577 -0.06330616 0.029754814 -0.04671404
000210 95 2f b7 3d 0a 7a 06 be 5c d7 2b 3d 65 05 9f be
       0.089446224 -0.13132492 0.04195343 -0.31058803
000220 84 13 0a be 88 00 49 3c 37 4c ef 3c af d2 4b bd
       -0.13484007 0.012268193 0.029211147 -0.04976147
000230 98 9b f6 3b 42 6c a3 bd 3b 50 a0 3d 48 6c 69 3c
       0.0075258724 -0.07979633 0.07827803 0.014247008
000240 50 9f e8 3d d3 15 53 3d 81 56 66 bd 70 aa 28 be
       0.113585114 0.051534485 -0.05623484 -0.16471267
000250 6a 86 09 bc 38 77 2c 3c 8d 3e 27 3d b2 8e 4d bd
       -0.008393863 0.010526471 0.040831137 -0.050184913
000260 c8 58 ce bc ea 62 2d 3e 2b a8 ee bc 5c 43 35 3d
       -0.025188819 0.16932264 -0.029132923 0.044253692
000270 bb ea e3 bb 8e 92 92 be 37 b4 38 3e ed d9 a7 3e
       -0.0069554723 -0.28627437 0.18037497 0.32783452
000280 2d 6f a1 bd 1f 96 66 3e 94 22 61 3c 2d eb 85 3d
       -0.07882533 0.22518204 0.013741154 0.06538997
000290 99 8c 08 3e 55 09 d4 3d 76 75 a1 3d 89 2a 14 be
       0.13334884 0.103533424 0.07883732 -0.14469351
0002a0 9d 3e 32 be 78 1a 03 bc 72 fe 1b bc 9b 43 11 3b
       -0.17406698 -0.008001916 -0.009521114 0.002216554
0002b0 b7 25 32 3e 8f 60 51 be ba 50 81 3d e0 d7 45 be
       0.173972 -0.2044699 0.063142255 -0.19320631
0002c0 f3 6e 96 3d 6b a7 1c be d6 e9 ac 3d cc 4b fb 3d
       0.07345381 -0.1529824 0.08443038 0.122703165
0002d0 e9 21 b3 3d 21 f5 2b 3d af 1d da bd 2f b4 0c bd
       0.08746702 0.04198182 -0.10650193 -0.034351524
0002e0 5b 3e bf 3c 6a 0b 33 3c ba d0 33 3d ac 84 04 3d
       0.023345163 0.010928014 0.04390023 0.03235309
0002f0 c2 f0 01 bd f2 61 fb bd ad 77 8a 3d ee 99 30 bd
       -0.031723745 -0.12274541 0.067611076 -0.04311555
000300 44 e8 06 be 3f a8 24 bd be 30 bf bd 2a 69 6b bc
       -0.1317454 -0.040199514 -0.09335469 -0.014368335
000310 64 17 5b 3e 26 7c af b9 c9 25 78 bb c4 55 14 bd
       0.21395642 -0.000334711 -0.0037864319 -0.036214605
000320 ed 4d cb 3d 88 f1 1c 3c ed 2a 70 3b f5 cd 26 bd
       0.099269725 0.00957907 0.003664668 -0.04072376
000330 92 89 06 be f8 70 d0 bd 4d 25 c7 3c b6 27 8a 3c
       -0.13138416 -0.10177797 0.024309779 0.016864639
000340 c5 93 2b bd 89 a3 7d be 06 67 61 bd 43 14 35 bd
       -0.04188897 -0.24769415 -0.05502989 -0.044208776
000350 47 72 0b bc 91 cf 93 bd 37 7a c3 3d 13 50 1c be
       -0.008511133 -0.072173245 0.09544795 -0.15264921
000360 5b eb 34 3d 63 88 3a bd b4 d4 ac bc 99 2e b8 bb
       0.044169765 -0.045540225 -0.021097519 -0.0056207892
000370 50 c2 da 3d 10 0a 64 3d 77 92 90 3c 15 c9 fb bc
       0.106815934 0.05567366 0.017647965 -0.030735532
000380 46 b1 40 bc f8 a6 fe bb b9 9b fa 3b 40 78 e2 3d
       -0.011761015 -0.007771369 0.007647958 0.11058092
000390 bd e4 92 bd ce 5c 70 3c c1 bd e0 3b 4c 03 3c bd
       -0.071725346 0.014670564 0.006858558 -0.04590158
0003a0 f8 d4 c3 bd 53 19 81 bc 58 8b 21 3c 34 17 9c 3a
       -0.09562105 -0.015759146 0.009859882 0.001190877
0003b0 b2 73 d2 bd 8f 5d 8b 3e df f0 b7 3e 11 62 70 3e
       -0.102759734 0.27219817 0.35925958 0.2347491
0003c0 54 d6 69 bb 51 aa 89 be 02 b0 d0 3c 64 5b f5 bc
       -0.0035680728 -0.26887754 0.025474552 -0.029950805
0003d0 02 97 63 3e 34 b0 3e 3e 5a bf b6 bd 4d 18 0c 3e
       0.22225574 0.18621904 -0.08923216 0.13681145
0003e0 9d 41 0a 3d d2 2b 46 3d 1f 5b cf 3d db 1a 70 3c
       0.03375398 0.048381634 0.10124802 0.01465484
0003f0 92 f6 d8 3c f8 ef 9f bd 1e 20 f4 bc 8f 15 e7 bb
       0.026484761 -0.07809442 -0.02980047 -0.0070521305

fc1.bias f4 [128]
000000 93 7e c1 bc 32 89 ae be cb 3a 0f 3d 42 21 10 3e
       -0.023619926 -0.34089047 0.03496818 0.14075187
000010 97 e9 dd bd eb 25 8b bf a3 b0 4b bc ec 8e a3 3d
       -0.10835569 -1.0870947 -0.01243225 0.079862446
000020 11 7a 2d 3d eb 47 06 3d a7 d9 96 3d d8 29 34 bd
       0.04235274 0.03278343 0.07365733 -0.043985218
000030 68 c0 1e bd 9c 98 77 3d 78 91 e8 3c 60 3b 91 3d
       -0.03875771 0.060448274 0.028389677 0.07091403
000040 52 36 68 3d a9 30 73 bf 58 5c 44 3b 2c f0 20 bf
       0.05669243 -0.94996125 0.0029962268 -0.62866473
000050 e4 cf bd bc 8f a6 e0 bd e0 23 f7 bd 7c 88 9e bd
       -0.023170419 -0.109692685 -0.120673895 -0.07740876
000060 b5 ea bb bd 5a e0 88 bd ac 47 c3 bd 86 80 0a bd
       -0.09175626 -0.06683417 -0.09535155 -0.033813976
000070 20 c6 ef 3d 36 3b 99 bd cb e3 87 bd 1f 75 99 bf
       0.11707711 -0.07481997 -0.06635245 -1.1988868
000080 aa f2 23 3c a5 5a 0e 3d 49 8d 75 bf 7e f0 b7 3c
       0.010006586 0.034754414 -0.9591871 0.022453543
000090 03 b5 9c 3d 92 98 c5 bd 3a ed 0f bd 96 71 31 bd
       0.07651713 -0.09648241 -0.035138346 -0.043321215
0000a0 bd a0 61 be 3a a1 4c bd 91 82 8f 3e 0f d6 fb 3c
       -0.22033973 -0.049958445 0.28029302 0.03074172
0000b0 ab e0 f1 bc 55 d6 e9 bc 6e 77 aa bc f6 57 f1 bd
       -0.029526075 -0.028544584 -0.020808902 -0.11784355
0000c0 10 70 eb 3d f4 e3 40 bd ec cf a3 bd bd 60 fd 3d
       0.114959836 -0.047092393 -0.07998642 0.12371967
0000d0 c9 83 3b 3e 64 91 e2 bd e8 ed 18 3e 8f 77 3c 3d
       0.18311991 -0.11062887 0.14934504 0.046012457
0000e0 14 51 21 3e 95 d6 52 3c d6 9f ea bb 50 df e7 be
       0.15753585 0.012868543 -0.007160167 -0.4528756
0000f0 42 c7 94 3c 1d c2 a6 3d f9 ad fd bd c6 e5 6e bd
       0.01816142 0.08142493 -0.12386698 -0.058324598
000100 ad 24 34 be 32 c3 c0 ba d8 10 96 bf 81 89 6e bf
       -0.17592116 -0.001470661 -1.172389 -0.93178564
000110 f6 61 a3 3d 45 11 eb 3c 1c 28 09 3e 2a 67 f6 bd
       0.07977669 0.028694758 0.13394207 -0.12031396
000120 c1 8a 67 bf 83 03 9b 3e c2 c3 c3 bd 67 35 0d be
       -0.90446097 0.30276117 -0.09558822 -0.13789903
000130 2d 00 bb 3c e3 e8 81 bf f1 78 1a bf 3a 7f 54 bd
       0.022827232 -1.0149196 -0.6034079 -0.051879145
000140 26 b4 25 3c 4b 44 f5 3c 23 59 13 bc 1b fb 8d 3e
       0.0101137515 0.029939791 -0.00899342 0.2773064
000150 61 03 94 bf 7f bb ab bd 04 2a 04 3e ef 55 a7 bc
       -1.1563531 -0.083853714 0.12906653 -0.020426719
000160 5c ae c3 bd 7f 4c b9 3c 7d 5a 74 bd 68 d6 c4 bd
       -0.09554741 0.022619484 -0.05965661 -0.09611207
000170 34 75 f3 3d a8 c2 0e 3e 47 5c d8 3d 5a 04 c2 bd
       0.11887589 0.13941443 0.105644755 -0.09473486
000180 73 37 b3 3d 9d c2 f1 3d 66 91 04 3d d8 30 86 be
       0.087508105 0.11804698 0.032365225 -0.2620914
000190 39 96 e7 3d 30 06 c8 bd 17 29 be 3d d1 65 bf 3c
       0.113079496 -0.09766805 0.09285181 0.02336398
0001a0 cb f4 02 3e 37 25 e5 3d 56 32 8c 3a db ef f6 3d
       0.12788694 0.11188739 0.0010696154 0.120574676
0001b0 70 d8 a9 bd 5a 32 5d 3e 39 73 0a 3e e2 2f b3 bd
       -0.08293235 0.21601239 0.13520516 -0.08749367
0001c0 78 1f 8f bc c4 86 a9 bd 97 b5 83 bf 29 8e 85 bf
       -0.01747106 -0.08277658 -1.0289792 -1.0434009
0001d0 cc c3 2d 3c 68 07 04 be ea 08 a2 bd fa b7 09 bd
       0.010605764 -0.1289345 -0.079118565 -0.03362272
0001e0 a7 17 64 bf bf 7c 04 bd 2e c8 f4 3d cc c0 8d bc
       -0.8909859 -0.03234553 0.11952244 -0.017303847
0001f0 fe 66 bf 3d 64 27 3c 3e f0 d7 4b 3e 96 8c c7 bc
       0.09345816 0.18374401 0.19906592 -0.024359029

fc2.weight f4 [256, 128]
000000 cf 40 8d 3c 6d f9 cc bc 8a 51 2c bd 12 7b 2c bd
       0.017242817 -0.02502128 -0.04206995 -0.042109556
000010 cf 8f 43 3d 0d 8d b9 bb 80 b8 00 3e 44 bc 44 3c
       0.04774457 -0.0056625665 0.12570381 0.012007777
000020 58 ba ae bc 36 e5 ce bc 01 15 d2 bd 43 93 47 3c
       -0.02132909 -0.02525578 -0.102579124 0.012181106
000030 16 43 76 3c d1 a5 ae bc d4 c6 67 bd b0 02 5b be
       0.015030643 -0.021319302 -0.0565861 -0.21387744
000040 dd 70 4e 3c 6d ad fb bd fc e6 29 3c b9 6c c3 bd
       0.012600151 -0.12288938 0.010370012 -0.095422216
000050 07 9a 21 bd 1f f6 fe 3b c6 94 ee bd 2d e2 a3 bd
       -0.039453533 0.0077808048 -0.1164947 -0.08002124
000060 16 f9 12 3d 4a 7c 85 bd f0 32 d6 bc 92 17 28 bd
       0.035882078 -0.06517847 -0.026147336 -0.041038103
000070 9d 07 4b 3e 58 e9 7d 3d eb 17 44 3e 69 a3 91 bd
       0.19827123 0.061990112 0.19149749 -0.07111246
000080 9a 2e 8f 3b e0 33 00 bd 83 ac b0 3d c2 d4 9f bc
       0.004369569 -0.03129947 0.08626654 -0.01951063
000090 75 ab d7 bc b3 4a 5e 3c 95 88 c8 bc c8 d4 e6 3c
       -0.026326874 0.013567614 -0.02447919 0.028177634
0000a0 37 b6 ae bb 6e bd 03 bd 7c a8 d0 3b ec f6 49 bd
       -0.0053317803 -0.032163076 0.006367741 -0.04930775
0000b0 d3 c6 68 3b 34 87 42 3d 4a e1 e0 bd ba 30 87 be
       0.00355189 0.04749222 -0.109804705 -0.26404363
0000c0 03 2f 9c 3b 2d 2e 4a bd 3e eb 9e bb d4 67 34 bc
       0.0047663464 -0.049360443 -0.0048498204 -0.011011083
0000d0 14 93 ba 3d 47 d1 2c be e7 c2 f0 bc fe 18 08 bc
       0.09110084 -0.16876708 -0.029389812 -0.00830674
0000e0 fb 28 8f bc 40 e2 06 be a5 9b 93 3d 3e 02 fa bd
       -0.017475596 -0.13172245 0.07207421 -0.12207459
0000f0 39 83 76 bd 26 fa 42 bc 10 1e 09 bd 59 72 01 bd
       -0.060183737 -0.01190046 -0.033475935 -0.03160319
000100 70 8e 2a bd d4 00 29 3e b8 19 7f bd 22 e2 82 bd
       -0.041639745 0.16504222 -0.062280387 -0.06390788
000110 be d5 d6 3d e4 bb a9 bc 3c 85 ce bb 90 f2 87 bc
       0.10489987 -0.020719476 -0.006302504 -0.016595155
000120 ed 55 e0 3d 0e 64 52 3c 65 6d 1b bd 48 0a 8c bc
       0.10953889 0.012841238 -0.037946124 -0.017094746
000130 42 5e 49 3c 6a e6 44 bd 92 31 90 bd f9 fd 81 bd
       0.012290539 -0.048071302 -0.07040705 -0.063472696
000140 bc ad 92 bd ef ba 34 bd 4d 05 e7 bb 15 7f 6e bd
       -0.071620435 -0.044123586 -0.0070501924 -0.058226664
000150 2c e7 86 bd 00 57 9e 3d 13 61 03 bd 74 98 0b 3d
       -0.06587061 0.07731438 -0.032075 0.034080938
000160 13 51 fa bd a5 9c 15 3d d4 46 94 bc 47 61 9e 3c
       -0.12222495 0.03652634 -0.01810018 0.019333495
000170 ce 46 52 bd a8 89 23 3c cf 68 11 bb fa cf 9f 3a
       -0.051337056 0.00998155 -0.0022187715 0.0012192719
000180 bb d2 71 3c 71 2e 94 3d 17 4a a3 bc 48 57 92 bb
       0.014759715 0.072354205 -0.01993279 -0.004465971
000190 35 90 b2 3b 2e e7 32 bc f1 c8 ff bc e4 c1 5f 3d
       0.0054493197 -0.010919375 -0.031223746 0.054628268
0001a0 d5 b5 46 bd 0a 16 60 bd 26 62 33 be 7d 16 b7 3d
       -0.048513252 -0.054708518 -0.1751791 0.08939836
0001b0 47 a0 e4 bc 46 a5 05 3b 29 51 c7 bc 4c ee b5 bc
       -0.027908457 0.00203927 -0.024330692 -0.022208355
0001c0 9b 0a 48 3d ed b3 05 bd 10 ad c0 bd 16 ab c8 3c
       0.04883824 -0.032642294 -0.09408009 0.024495643
0001d0 a8 03 72 3d db 99 aa bb e7 18 ae bc 95 cd 84 3c
       0.059085518 -0.0052063293 -0.021252109 0.01621131
0001e0 a7 00 42 3c ad e7 07 3d c6 73 a5 3b 93 ce 1b bc
       0.011840976 0.033179928 0.0050492017 -0.0095097
0001f0 17 1d ab 3b be 3f db bc 83 fe 9c 3b 20 62 d2 bc
       0.0052219736 -0.026763793 0.0047910823 -0.025681555
000200 d4 f0 1c bd ba 5b 80 bb ef 64 e4 bc 23 69 0e bd
       -0.03831561 -0.0039171847 -0.02788016 -0.034768235
000210 f0 8d ea bc e1 3c b2 bc 20 07 e1 bc 96 db 5b bb
       -0.028632134 -0.021757545 -0.027469218 -0.0033547631
000220 c9 bf 8d bc 69 4b e2 bc ee fc 49 3c 42 23 8b bc
       -0.017303364 -0.027623849 0.01232837 -0.016984586
000230 44 49 ec bc 7c bc 3c 3d ad 42 32 bd 74 50 15 bd
       -0.02884353 0.04607819 -0.04352062 -0.03645368
000240 bd 20 79 bc 75 22 17 bd e5 4b e5 bc 4e 3a 13 bd
       -0.015205559 -0.036898095 -0.02799029 -0.035944276
000250 8f 98 2d bc 82 f5 ca bb 16 c9 6a bc 82 94 e1 bc
       -0.010595455 -0.0061938176 -0.014330169 -0.027536634
000260 30 84 84 bc 3f a5 8b bc 88 e6 f6 bc c0 03 53 bd
       -0.016176313 -0.017046569 -0.030139223 -0.05151725
000270 a4 ac bb bc 8f 57 1e bb e5 5e 68 3b 13 36 45 bd
       -0.02290947 -0.0024161076 0.0035456952 -0.048147272
000280 7d 96 df bc 05 fe af bc 5b e3 a5 bc 62 e4 66 bd
       -0.027293438 -0.02148343 -0.020250013 -0.056370147
000290 b0 cd 8b 3b 29 d7 cd b9 7a 17 3d bd c7 92 ad bc
       0.004266463 -0.00039260954 -0.046164967 -0.021188153
0002a0 28 bc 20 bd d4 3f 6a bb fc 82 29 bc 4d 25 c4 bc
       -0.03924194 -0.003574361 -0.0103461705 -0.023943568
0002b0 ca b2 19 bc b7 bc 49 bc 63 06 7c bc de c5 cb bb
       -0.009381006 -0.0123130595 -0.015382382 -0.006218656
0002c0 2f aa 1d bc 05 aa fb bc 03 5a ce bc cd 29 51 bc
       -0.009623094 -0.03072072 -0.025189405 -0.012766314
0002d0 51 e6 e9 bc ad 13 d1 bb 09 17 17 bb ad d3 16 bd
       -0.028552206 -0.0063805194 -0.0023054502 -0.036822964
0002e0 04 42 dc bc 26 85 18 bd 95 89 1b bc 74 95 a0 3c
       -0.026886947 -0.037236355 -0.009493251 0.019602515
0002f0 3a 9a 9a bc 40 48 0c bd c5 9c 92 bc 28 15 7e bd
       -0.01887237 -0.03424859 -0.01789702 -0.062031895
000300 51 72 1b bb ba 8d 18 bc 46 88 3c bd bd a7 d2 bc
       -0.002371926 -0.009311134 -0.046028398 -0.02571475
000310 53 60 bb bc 66 e9 4b bc 7d 3e ba bc 4a 56 4e bb
       -0.02287308 -0.012445783 -0.022734875 -0.0031484538
000320 25 4f 35 bc 1e 23 ac bc 7d 22 23 bc ab 28 63 bb
       -0.011066233 -0.021012839 -0.009956953 -0.0034661691
000330 8a ac 33 bc ca 90 ab 3c 09 46 e3 3b 7c 11 e1 bc
       -0.0109664295 0.020943064 0.006935839 -0.027474158
000340 20 98 8a bc c5 4e 25 ba 50 5a bf bb 47 92 f6 bc
       -0.016918242 -0.0006305988 -0.0058396235 -0.030099047
000350 8b cd d7 bb 37 e4 90 bc 02 d3 4f 3c a0 63 d7 bc
       -0.006585782 -0.017686946 0.0126845855 -0.026292622
000360 4f 1c 45 3c 4d 66 a1 bc 7e 01 1e bd 8e 47 31 bc
       0.012030675 -0.019702101 -0.03857564 -0.010820283
000370 cf 91 bf bc f5 50 1c bc 3b a6 38 bd 89 2a ad bb
       -0.023384957 -0.009540786 -0.045080405 -0.0052846116
000380 12 73 53 bc a9 a0 02 bd 36 0b 85 3a 8e 56 b4 bc
       -0.012905853 -0.0318915 0.0010150436 -0.022013929
000390 9e 4e 72 bc 8c 60 65 bb a1 ed 80 bc f6 da dc 3b
       -0.014789252 -0.0035000173 -0.01573831 0.0067399694
0003a0 af 76 e5 bc f6 9f 47 bc 5c ef 1f bd 45 0c a1 bc
       -0.028010694 -0.012184134 -0.03904663 -0.01965917
0003b0 dc 37 88 3b 80 dd bc bc 29 b0 fd bc 1c bf df bc
       0.0041570496 -0.023054838 -0.030967789 -0.027312808
0003c0 69 48 04 3c f7 a4 c9 3b 88 02 9b bc ca 47 6c bc
       0.008073905 0.0061536985 -0.018922105 -0.014421413
0003d0 8d a5 c8 bb 13 8a db bc e0 2c 0f bc b8 df e8 bc
       -0.006123251 -0.026799237 -0.008738726 -0.02842699
0003e0 80 a9 da bb 10 68 0d bc c0 0c 3c bc c8 d7 c4 bc
       -0.006673038 -0.008630767 -0.011477649 -0.024028674
0003f0 bd 12 dc bb f9 e1 9e 3b 41 b9 0b bd 74 29 91 3c
       -0.006716101 0.0048487154 -0.03411222 0.017719962

fc2.bias f4 [256]
000000 50 01 87 b9 08 54 3e bd 27 4d 6c ba 33 24 14 3d
       -0.00025750184 -0.046466857 -0.0009014182 0.036167335
000010 65 ef bc be 82 c6 61 3d 5e aa 2d 3c 79 ec 71 bd
       -0.36901394 0.055120952 0.010599701 -0.05906341
000020 de 33 e5 3d cd 5f 07 bb 66 0c 84 3b ee e0 39 3c
       0.111915335 -0.0020656467 0.0040297983 0.011345131
000030 4f d6 bf 3b 2f dd e1 bc 9b 87 78 3d af f1 f8 bd
       0.005854405 -0.027571289 0.0606762 -0.121554725
000040 fb b5 19 bd fe 4e b1 3d 94 e7 19 3e dc 3d 30 be
       -0.037527066 0.08657645 0.15029746 -0.17211097
000050 bc 87 be 3c e3 37 ae 3d 07 01 7c bd 0d 7d 23 3d
       0.023258083 0.08506753 -0.061524417 0.03991418
000060 64 80 60 bd 2f 73 c3 3d d8 ce 3c bd 5c f3 41 bd
       -0.054809943 0.09543454 -0.0460957 -0.047351226
000070 bd af bd 3b 65 5e 38 bd f4 f9 e8 3c 1a 00 6d bc
       0.005788772 -0.045011897 0.0284395 -0.014465356
000080 9d 65 c0 3c 0a 95 86 3d a8 ae 7c bc 37 03 cd bb
       0.023485953 0.06571396 -0.015422501 -0.0062564868
000090 f7 f0 0b bd 9a 56 a1 bc 7d e4 b9 bd 3e 9b d8 3d
       -0.03416535 -0.019694615 -0.09076784 0.10576485
0000a0 e4 03 5b be 46 e3 43 3d 81 74 63 3d 46 a0 6e 3c
       -0.21388203 0.047824167 0.05553103 0.014564579
0000b0 77 8a 61 bc 32 c7 a8 be c5 13 ac bc 97 af b5 3a
       -0.013765923 -0.32964474 -0.02100552 0.0013861534
0000c0 39 46 34 be d2 5d 11 3e 44 6a ca bd 54 4a 45 bc
       -0.17604913 0.14195946 -0.0988355 -0.012041647
0000d0 ec 65 9e 3c e0 16 48 bd a5 6f 98 bc 89 41 2a 3d
       0.01933571 -0.04884994 -0.018607924 0.041566405
0000e0 58 4f fc bd 88 a4 a8 3d fe 22 29 bd c5 d8 90 3d
       -0.12319821 0.08234507 -0.041293137 0.070725955
0000f0 34 9d 80 3d f5 86 07 bd ee 51 b1 3c 38 4d 31 bc
       0.06279984 -0.03308769 0.021645512 -0.010821633
000100 5a 1f 89 bd 49 89 ab be 61 f5 0d bd 95 e9 ca bc
       -0.06695433 -0.33503178 -0.03465784 -0.024769584
000110 7c 4f 01 3c 9c 35 e5 bd a3 1d 4e bd 2d e3 8c bd
       0.007892486 -0.11191866 -0.050321233 -0.06879268
000120 7b ec 00 3d a8 2c b0 bc 4c 45 30 bc d1 5e 68 bb
       0.031475525 -0.021505669 -0.010758709 -0.0035456906
000130 28 94 db bb a5 b5 37 bc be 58 29 be 10 74 30 3d
       -0.006701011 -0.011212741 -0.16537759 0.043079436
000140 9e a7 57 bd 71 b2 2c bd 95 15 ea bc 4e 65 15 3c
       -0.052650087 -0.042162362 -0.028574744 0.009118391
000150 6d b6 02 3e de bf ad 3c 73 8b b6 3c cd 69 3e bd
       0.12764902 0.021209653 0.022283291 -0.04648762
000160 ce 14 b8 bd 9c 3c c9 bd 90 72 4f bd 09 a0 d0 bd
       -0.08988343 -0.098260134 -0.050646365 -0.10186774
000170 5b 63 c3 bd d3 e6 01 3e b4 e9 4a bd 76 fe 7a bc
       -0.09540435 0.12685709 -0.049539283 -0.015319457
000180 44 28 fc 3c c0 3d 7b bd b0 93 58 bd 2e 6f ea bc
       0.030780919 -0.061338186 -0.05287522 -0.028617468
000190 8b 82 71 3d f7 be 26 bd 60 6e 40 bc fd 93 9c 3c
       0.058962386 -0.040709462 -0.011745065 0.019113535
0001a0 1f 5e 14 bd 50 39 b7 3c 33 b6 17 be 2f 90 00 bb
       -0.036222573 0.022366196 -0.14815597 -0.001961719
0001b0 4f cf 53 bd 1d 2c b8 3c 54 e3 c4 3c 30 8f d1 bd
       -0.051711377 0.022481972 0.02403418 -0.10232389
0001c0 b0 03 1e bd 2a b8 16 3e 9e fe 33 bc d0 d8 9a bd
       -0.038577735 0.1471869 -0.010985998 -0.07560885
0001d0 5c b7 f7 3d ad 82 b6 bd 09 6b 85 ba 1f d8 7f bc
       0.1209552 -0.08911643 -0.0010178994 -0.015615492
0001e0 dd 8a 09 3d b8 96 f5 bd 3e 20 b3 bd e1 34 0d bc
       0.033579696 -0.11991638 -0.08746384 -0.008618564
0001f0 2d e9 c7 3c af 53 48 be 6d 30 db bb da 8a 9d bc
       0.024403179 -0.19563173 -0.0066891224 -0.019231249
000200 46 e6 8a bd 02 49 c0 3c ed 98 c9 bc b1 24 4c bd
       -0.067822024 0.023472313 -0.024609054 -0.04983968
000210 8c a4 44 bb d7 5a a3 bd 86 61 0a bc db 8a c4 bd
       -0.0030005304 -0.07976311 -0.008446103 -0.09596797
000220 73 f8 54 bd 05 96 d8 3d 22 9c d5 be 30 7b 4c bd
       -0.051994752 0.10575489 -0.41720682 -0.04992217
000230 26 49 88 bd 70 1f 3f bd 03 42 72 bd 24 9e dc bd
       -0.06654577 -0.04666084 -0.059144985 -0.107723504
000240 11 16 5a 3c 0d dc 3d 3d 3f ed 6b bd 61 94 79 3d
       0.013310925 0.046352435 -0.057599302 0.06093252
000250 47 9e 36 bc 09 5d 1e bd bd 71 97 3d 80 12 ce 3b
       -0.011146135 -0.038662944 0.07394741 0.0062888265
000260 e8 b2 93 3c fd 01 b5 bd e2 fd 00 3d 2d bc 7e bb
       0.018029645 -0.0883827 0.03149212 -0.0038869486
000270 d3 73 4e bd 2d 4e 8e bd 27 0f c7 3d 95 fb 8d 3a
       -0.050403427 -0.069485046 0.09719687 0.0010832424
000280 08 ed 25 bb 54 15 92 bc 75 bb 68 bd c1 f8 ba 3d
       -0.0025318284 -0.017832436 -0.056819398 0.09129477
000290 dc e6 1e bc 08 8f 58 be 90 a6 54 3d b5 cf cf 3d
       -0.009698596 -0.21148312 0.05191666 0.10147039
0002a0 4b 8b 00 3c 29 0a c1 bd 03 60 93 3c 31 22 84 3c
       0.00784571 -0.09425766 0.017990118 0.016129585
0002b0 fe 17 fc bc 8c 68 a0 3a 06 42 45 3c 81 ce 33 3d
       -0.03077316 0.0012238189 0.012039667 0.04389811
0002c0 22 83 e9 bc fb af 71 3c b3 65 8e bd 77 c6 46 bd
       -0.028504912 0.01475143 -0.06952991 -0.048529115
0002d0 d5 cb d1 bd 26 8e 85 3c 32 7c 8a bd 6c ac 45 3d
       -0.10243956 0.016303133 -0.067619696 0.048260137
0002e0 7f 5c b4 bd fc 2c 2a 3c 03 22 5c 3d bf 05 c0 bd
       -0.08806705 0.010386702 0.053743374 -0.09376096
0002f0 d2 4f c0 3b 26 c7 f8 3c a3 31 e7 be e3 ab 28 bd
       0.0058688903 0.030368399 -0.45155057 -0.04117955
000300 ad 30 6d bd fd 6b ef bc ab b4 9e bd bf bf 36 bc
       -0.05790775 -0.029226298 -0.077493034 -0.011154114
000310 71 03 3d bc 56 89 57 3d a2 ed 0c bd 43 83 ae 3d
       -0.011536465 0.052621208 -0.03440631 0.0852113
000320 97 00 9a bc 0f 0e ab bc 62 e0 41 bd cc ff 76 bd
       -0.01879911 -0.020880727 -0.04733313 -0.06030254
000330 55 38 ae be 00 34 da bd 8e ad f3 3c 45 0f 90 3d
       -0.34027353 -0.106544495 0.029745843 0.070341624
000340 03 5a 96 bd 62 9c 9e bd c7 18 92 3c 84 7a 9e be
       -0.07341387 -0.077446714 0.01783408 -0.30952847
000350 b6 8e c1 bd ba 95 30 3d bf b7 0a bd 0d fa a8 3c
       -0.09451048 0.04311154 -0.03386664 0.020627046
000360 db 11 b4 bc 5a e4 2d bc 33 bf 91 bc 0c 14 df bd
       -0.02198117 -0.010613525 -0.017791366 -0.108924955
000370 15 dd c2 bb 6c 3e 32 bd bd e9 02 be 0f f7 e4 bc
       -0.005946765 -0.04351656 -0.12784477 -0.027949838
000380 b9 46 61 bd 79 4d 4b bd b2 e8 8b 3c 97 7d 81 3d
       -0.054999087 -0.04963443 0.017078731 0.063227825
000390 f2 0c 9d 3c 73 23 11 bd 11 19 c9 3d b2 1b c5 3d
       0.019171212 -0.035434198 0.09819234 0.09624423
0003a0 3e 54 fd bc 6f e8 8f bc 93 f7 6a bc 52 f7 30 bd
       -0.030923959 -0.017566888 -0.014341253 -0.043204613
0003b0 5d 0a 36 bc 63 03 79 bb 68 11 77 bc 37 3e 1b bd
       -0.011110869 -0.0037996403 -0.015079834 -0.03790113
0003c0 bc 79 b6 3d 52 79 4c bd 86 79 51 be 76 2e ac 3c
       0.08909938 -0.049920388 -0.20456514 0.021018248
0003d0 60 51 96 bc ec 76 a2 bd f6 5b 30 bd 6c 82 05 be
       -0.01834935 -0.07932839 -0.04305645 -0.13038033
0003e0 5b ee 32 bd f6 2c 9f bb a8 73 54 3d 6c 5a 48 3c
       -0.043684345 -0.0048576547 0.05186811 0.0122285895
0003f0 95 38 23 bd 36 01 e0 be ba 54 28 3c ae ab 26 bd
       -0.039848883 -0.43750924 0.010274107 -0.04069107

fc3.weight f4 [256, 256]
000000 dc 7e 0e bc 20 3b 35 bc 1f 77 bd bb f4 98 cb bc
       -0.008697238 -0.01106146 -0.0057820226 -0.024853207
000010 70 b3 ad 3b 35 c4 5b 3c 28 98 e4 3b be c2 d6 bd
       0.0053009316 0.013413479 0.0069761463 -0.10486363
000020 18 39 7e 3e 54 11 2e 3e e5 f6 6d bd 9f bc a2 bc
       0.24826467 0.16998798 -0.058096785 -0.019865332
000030 18 0a 3b 3c e6 01 80 3b 92 25 8d bd c0 03 2b 3d
       0.011415981 0.0039064763 -0.068919316 0.041751623
000040 7c 98 0a 3b 3a 52 48 ba b9 da 57 3c b1 ac 1b 3c
       0.0021148017 -0.0007641647 0.013174706 0.009501622
000050 c0 94 b2 be 1d 6e c0 3d b2 b9 25 bc ac 00 f7 ba
       -0.34879112 0.093960024 -0.010115074 -0.0018844805
000060 e8 92 e9 be 77 e2 32 3b 21 a3 84 bd 9a de 15 3d
       -0.45619893 0.0027295628 -0.06476427 0.036589243
000070 1f 44 79 bd 68 56 f8 bb 4f 2c 3e 3e 30 07 57 bc
       -0.06085598 -0.00757866 0.1857159 -0.013124272
000080 1f 5f ca 3c 88 86 50 3d 06 8f 69 3e 96 81 74 3d
       0.02470356 0.05090955 0.22808465 0.059693895
000090 d3 34 40 3a e8 98 7c 3a 54 e1 2a 3c 05 1b ca bc
       0.000733209 0.0009635822 0.010429699 -0.024671087
0000a0 eb 6c 9a ba e8 64 fb be d4 1a 97 3c f5 7e 29 3d
       -0.0011781728 -0.49100423 0.01844541 0.04138084
0000b0 bd ba c8 3e ab 71 a1 3a 7b b1 1b 3d 82 7f 51 bd
       0.3920497 0.0012317201 0.038011055 -0.05114699
0000c0 f8 09 ee 3c 9b 97 25 be b2 26 4b 3b ff 57 62 bc
       0.029057488 -0.16171114 0.0030998406 -0.013814925
0000d0 bf db 84 bd e4 0d b7 bd 82 c3 94 3e 7f c4 c2 3d
       -0.06487226 -0.08938196 0.2905541 0.09510135
0000e0 87 e3 05 3d 51 2c 3c be 8a f6 04 3d e2 a5 a6 3d
       0.03268769 -0.1837628 0.03246168 0.081371084
0000f0 64 e4 46 bb 2e ab d6 bc 73 2b 78 3d f2 ca 79 bd
       -0.0030348534 -0.026204672 0.06058831 -0.06098456
000100 8a 0d ab 3c 8d 41 2c bc 1e c0 4a 3d 91 87 97 3c
       0.02088048 -0.010513675 0.049499623 0.01849726
000110 0d 64 83 3d ba 98 eb bc 17 5a a6 3b 40 1f 9f 3d
       0.064155675 -0.02875935 0.0050766575 0.07769632
000120 2a 6e df be 3e 76 08 be a6 ff 5c 3c 8c d4 63 bd
       -0.43638736 -0.13326356 0.013488686 -0.055622622
000130 c2 b9 5a 3d 87 d4 e1 bd ab 1b 52 3d 29 8a 1b be
       0.05339981 -0.110268645 0.051295917 -0.15189423
000140 48 c0 35 3c 7f 08 0b bd 88 e9 0f 3d a3 34 03 3e
       0.011093207 -0.03394365 0.035134822 0.12813048
000150 36 f6 69 3b ac f0 86 3d 4b 64 1b be d2 c4 d5 b9
       0.0035699732 0.06588873 -0.15174977 -0.00040773168
000160 80 84 b4 bb 03 f8 a4 be 0e 6c eb 3b 07 1b af 3c
       -0.0055089593 -0.32220468 0.007184512 0.021375192
000170 37 12 84 be fa 72 65 bc 30 46 4f 38 7c ab 02 3d
       -0.25795147 -0.014004463 4.9418013e-05 0.03190182
000180 12 ff 30 bb 74 ca 6a 3d 71 e5 28 bc 3e 70 12 3d
       -0.0027007503 0.05732198 -0.010308609 0.035751574
000190 bf 55 eb 3d c8 18 ab 3d c9 eb 33 be b8 ff 3d bc
       0.11490964 0.08354336 -0.17570414 -0.011596613
0001a0 e9 89 7b 3c f2 93 f6 3d df 1b 0a bd 22 09 49 bd
       0.015352705 0.12039937 -0.033717986 -0.049080975
0001b0 b6 60 42 bb db 43 f5 3b dc d3 f4 bd 14 64 5f be
       -0.0029659695 0.0074848956 -0.119544715 -0.2181552
0001c0 00 23 2d 3c 22 6a 93 be 26 92 96 bd 52 0d 50 3d
       0.010567427 -0.2879191 -0.07352094 0.050793953
0001d0 63 d9 1b bd 36 8b 38 be aa 3e 6b 3d 8b 48 27 3b
       -0.038049113 -0.18021855 0.057432808 0.0025525417
0001e0 19 71 7b 3e c6 53 3f 3b fc ce 88 3d 61 63 63 3b
       0.24554862 0.002919422 0.06680104 0.0034696686
0001f0 46 28 af 3c 09 8a 28 ba 2f 88 f9 3a d5 d8 ed bd
       0.021381509 -0.000642926 0.0019037778 -0.11613623
000200 18 51 6b 3a 9e ba 86 3c 18 27 22 bd f5 5f ce 3b
       0.00089766225 0.016446408 -0.039588064 0.00629806
000210 b3 0e 51 3c 0f 19 b1 bd fa 2e a5 bd 37 0d 5c be
       0.012759852 -0.08647358 -0.08065601 -0.21489416
000220 f6 85 2b 3d 6e 31 30 bc 76 de 40 3c b8 49 e0 bc
       0.041875802 -0.010753972 0.011771789 -0.027378902
000230 ca a4 a6 bb 9e d4 86 bb 2b 54 10 3d b1 be bd bb
       -0.0050855624 -0.0041147014 0.03523652 -0.0057905545
000240 5b 41 ae 3c 67 32 11 bd 4c e4 0b 3d 2f 5f 7e 39
       0.021271398 -0.035448458 0.034153268 0.00024258786
000250 f3 12 59 3c 9d c1 96 3c 3a 84 b2 3c d9 5b 33 3e
       0.013249147 0.018402869 0.021791566 0.17515506
000260 5e 90 c0 3c af 62 d1 ba 49 2d 35 bd 9b b7 2b 3c
       0.02350634 -0.0015974845 -0.04423264 0.010480787
000270 f8 a1 96 bb 39 a3 49 be 76 b9 97 bd 42 6c ce 3d
       -0.004596945 -0.19691171 -0.07408421 0.10079242
000280 f0 e6 04 3d ab bc 1a 3c 48 98 9a bc cb 5e b8 3b
       0.0324468 0.009444396 -0.018871441 0.0056265346
000290 3c 98 9c 3b 46 69 0a 3b fd 91 8b be 0c 8f 7e 3b
       0.00477889 0.0021119877 -0.27259818 0.0038842587
0002a0 34 9e ab bd ca d0 e7 3b cf fc ac bd 9f 01 2f 3c
       -0.08379784 0.00707445 -0.08446657 0.010681539
0002b0 04 91 a7 bd 99 c5 e6 3b 3e 89 72 be fa a1 5e 3d
       -0.081819564 0.0070425984 -0.23685166 0.05435369
0002c0 60 07 c4 3b 65 95 2d 3e 1b a9 f9 bc 4c 6c 0a bb
       0.0059823245 0.1695152 -0.030476144 -0.002112168
0002d0 b3 12 43 bc 5b 70 07 bc 62 5d 86 be 46 8f 34 3b
       -0.011906314 -0.008266534 -0.2624312 0.0027551218
0002e0 0e f5 b8 bb 6b e3 09 3e 42 16 ce 3c c1 08 ee be
       -0.005644447 0.1346566 0.025157098 -0.46491054
0002f0 2b e8 24 3e a1 b9 60 3c b1 88 ab 3b 64 2d cf bc
       0.1610419 0.013716132 0.0052348007 -0.025290199
000300 5a f5 fa 3c e2 7a 26 39 dd d7 3e bd 7a e5 9f bc
       0.03063457 0.00015876771 -0.046592582 -0.019518603
000310 b6 2e ee bd b8 b4 92 bd dd 0d 55 3d 65 2a 6c bc
       -0.11630003 -0.071633756 0.052015174 -0.0144144045
000320 6e 80 6b 3a b9 3a fd 3c fc dd 93 3d c6 32 51 bd
       0.0008983676 0.03091179 0.072200745 -0.051073812
000330 6b b9 46 3c 3b 6a 24 be 8a 4d c1 bc 37 12 a3 3d
       0.012129168 -0.16056149 -0.023596544 0.079624586
000340 d2 59 32 bd 05 88 84 bc ad 01 7d 3d d6 72 0f 3c
       -0.04354269 -0.01617814 0.061769176 0.008755406
000350 f2 fd fe bd a3 3d 03 3e aa 87 a8 bc bc f5 02 be
       -0.1245078 0.12816481 -0.020572502 -0.12789053
000360 c5 a3 23 3c c1 d9 86 be fd 35 06 3e 4b 7e cf 3c
       0.009987776 -0.26338008 0.13106532 0.025328776
000370 2c 6f 25 be 87 08 19 3b a5 c8 f8 bc be 8e b2 3a
       -0.1615569 0.002335103 -0.030369112 0.0013622863
000380 6a 13 4c bc 97 ee d5 3c ba 43 06 3e fb a9 66 be
       -0.012455801 0.026114745 0.13111773 -0.2252578
000390 47 7b 34 be b5 2a 57 3e ae 67 d2 3b af 99 f9 3c
       -0.17625152 0.21012385 0.006421051 0.03046879
0003a0 c8 76 b7 39 86 1d f0 ba 9b da c7 3b ad 95 28 3e
       0.0003499298 -0.0018319346 0.006099058 0.16463347
0003b0 ab 18 a5 3c 9b 96 b5 ba f0 d8 23 be 46 9c 92 3d
       0.020153364 -0.0013854088 -0.16000724 0.07158713
0003c0 2b a1 91 ba 0d e6 bd bc 2b af 14 3c 48 57 40 bc
       -0.0011110654 -0.023180986 0.009074966 -0.0117395595
0003d0 fc e3 0d 3d a8 93 c6 bd 6f 59 1d 3e d7 52 95 be
       0.03464125 -0.09696132 0.15366147 -0.29164764
0003e0 1a c3 09 3d 74 c6 a5 3b dd c9 81 bc 74 f5 ee 3d
       0.03363333 0.005059058 -0.015843326 0.1166791
0003f0 f9 cf dd 3c 6d 99 a3 bd ac 62 5e 3c 16 07 b2 bc
       0.027076708 -0.07988248 0.01357333 -0.021731894

fc3.bias f4 [256]
000000 89 5c 44 3c 01 64 51 bc 47 f6 30 bc 85 3a 92 bc
       0.011984953 -0.01278019 -0.010800905 -0.01785017
000010 7f 03 b4 bc 29 97 30 3b 68 0a 90 3c 23 5a a3 bc
       -0.021974323 0.0026945567 0.017583087 -0.019940441
000020 86 c5 08 bc 78 cf 00 bc c6 d6 9b bc e1 3a 82 bc
       -0.0083478745 -0.007861964 -0.01902331 -0.015897216
000030 77 e0 b7 bb 79 af 26 bb 5c 1f e9 bb 59 ec ce 3b
       -0.005611475 -0.002543418 -0.007114334 0.006314796
000040 f2 af 18 bd 70 8a ee bc 6b 85 65 3c fb d5 62 bc
       -0.03727717 -0.029118747 0.01400886 -0.013844962
000050 8a 85 d3 bb e6 96 92 bc 23 32 59 bc 07 d3 44 bc
       -0.006455128 -0.01789422 -0.013256582 -0.012013203
000060 98 72 81 bc 8a 8a e3 3c 3e 5b 1f bc 4f d6 90 ba
       -0.015801713 0.027776022 -0.009726344 -0.0011050197
000070 cf 5c b4 3c 69 42 0a bc 45 73 fd 3b 56 12 f6 3b
       0.02201691 -0.008438685 0.0077346885 0.00750951
000080 6b d5 99 bc e6 1d b2 bd 36 8f 83 bc 8c 1f a2 bb
       -0.018778523 -0.08697109 -0.0160595 -0.0049476083
000090 e4 82 43 bc eb 65 12 bc b1 71 9a ba eb d2 84 3b
       -0.011933062 -0.008935432 -0.001178315 0.0040534637
0000a0 80 5f b5 bb b2 16 ec 3b 2c 20 3f 3d dd 0b 75 3c
       -0.005535066 0.007204854 0.04666154 0.014956442
0000b0 a1 bb 45 bc df 1e 41 3e a0 63 c7 3c e9 09 8e bc
       -0.01206866 0.18859433 0.024339497 -0.01733871
0000c0 4b 52 8e 3c e6 b8 c1 bb 5a a9 e8 bb c4 fd b8 bc
       0.017373225 -0.005911934 -0.0071002664 -0.022581942
0000d0 4a 86 6c bc 9c 50 e0 3b 76 46 2d bd 79 57 a9 bd
       -0.014436314 0.006845547 -0.042303525 -0.08268637
0000e0 a5 c0 cb bb 61 dc 42 bb 63 45 84 3c b4 6e bf 3a
       -0.0062180334 -0.0029733407 0.016146367 0.0014605136
0000f0 db dd 7d bc 28 b8 4c bc b6 2f 6c bc 8c 82 77 bc
       -0.015494789 -0.012495078 -0.014415672 -0.015106808
000100 6f 9d 0a bc e1 24 ee bb 66 43 32 3d 8e 63 4c bb
       -0.008460387 -0.00726758 0.043521307 -0.003118727
000110 8a 3b 60 bc b6 60 e8 bc be 72 b2 bc 3a 16 24 bc
       -0.01368607 -0.028366428 -0.021783229 -0.010015065
000120 b1 c8 bb 3c bc af 2f 3d 78 a4 22 bc 92 3e 41 bc
       0.022922846 0.042892203 -0.009926908 -0.011794703
000130 16 0c 61 bc 1f aa aa bc ed 93 53 bc 1b fb f0 3c
       -0.013735792 -0.020833073 -0.012913686 0.029416611
000140 aa 7a e0 bc 39 ad 64 bc b1 50 80 bc 1f 6f a1 3c
       -0.02740224 -0.013957315 -0.015663477 0.019706307
000150 90 b9 c3 3c a5 47 79 bc 55 76 66 bc 0e 91 d1 ba
       0.023892194 -0.015214835 -0.0140662985 -0.0015988664
000160 76 53 7a bc 32 54 16 3d cf 9b 94 3c 2d 2e 7e 3a
       -0.015278688 0.03670139 0.018140702 0.0009696212
000170 ae 7a 50 3c a2 30 6a bc 0a 3c eb 3b ca 9b 2c 3c
       0.012724562 -0.0142938215 0.007178788 0.01053519
000180 88 57 7b bc 82 d5 6a 3d 6b 97 bf bb 2f 83 d6 3a
       -0.015340693 0.057332523 -0.005846908 0.0016366
000190 4c 1f c4 bc 72 50 2c bc 26 b9 c1 bc b2 71 03 bc
       -0.023940705 -0.0105172265 -0.023647856 -0.008022713
0001a0 d4 8d 0f 3a 3d 1a 98 bb 0e e8 3a bd 7c da 93 bc
       0.0005476151 -0.0046417997 -0.04563146 -0.018048517
0001b0 1e 26 07 bd 04 e8 ba ba 2c a3 18 bc 09 cb 58 3c
       -0.032995336 -0.001425982 -0.009316247 0.013232001
0001c0 4f 33 9f ba 6f 2b 91 bd 21 ae 15 bc 83 dd 3f 3d
       -0.0012146028 -0.070883624 -0.009135754 0.04684211
0001d0 27 f0 c2 bb 5d 2d ca 3c fc 57 55 bc a3 e1 b4 bc
       -0.0059490385 0.024679834 -0.013021465 -0.022080248
0001e0 f1 bb 33 bc 5c 8f af bb 0c e3 99 bd ec e5 6f 3b
       -0.010970102 -0.005357666 -0.07514009 0.003660555
0001f0 b9 72 88 3b 65 ab 48 3d 67 39 a4 bb c4 6e 52 3d
       0.0041640666 0.04899158 -0.0050117257 0.051375166
000200 d4 8a fe 3a 33 e2 41 bb 16 43 73 3d 50 07 0a bc
       0.0019420036 -0.0029584288 0.05939015 -0.008424595
000210 1c 7a d2 bb e3 b9 1a 3d ed 81 41 3e c0 42 a5 bb
       -0.006423248 0.03777493 0.18897219 -0.0050433576
000220 8c 9a b6 3b bf 16 93 bb 60 1e f5 bc a3 4c 40 bc
       0.0055726226 -0.0044887955 -0.02992171 -0.011737022
000230 53 83 4e 3c 1e 63 05 3d ba 61 31 bc 2a fe 2d 3d
       0.012604552 0.03256523 -0.0108265225 0.042478718
000240 6a 3d 21 bc 50 10 28 bc be 11 be bb 02 f1 1c bc
       -0.009841302 -0.010257795 -0.005800455 -0.009578945
000250 fd 12 3d bc c8 92 e4 bb 88 c8 6c bc 60 b4 2b bc
       -0.011540172 -0.0069755055 -0.014452107 -0.0104800165
000260 d3 6f b7 bb 5b 65 5a bd 68 b7 fd bc 62 f5 91 3a
       -0.0055980473 -0.053319316 -0.030971244 0.0011135752
000270 6f 2c 1a bd be 5b 1f bd 5e c3 d5 3c 02 ef a7 3d
       -0.03764003 -0.03890585 0.026094135 0.08199884
000280 59 8d 66 bc 0a 28 c4 bb eb ae 00 3a 6d 54 68 bc
       -0.014071786 -0.0059862183 0.00049088773 -0.014180285
000290 1d 12 e2 bb b6 3f 4e bc 68 a1 cc ba f5 a6 be bd
       -0.006899132 -0.012588432 -0.0015612068 -0.09309188
0002a0 89 e9 0f 3d 92 7b 57 3a e8 57 e7 3c 5e 6d 85 3e
       0.035134826 0.00082200125 0.02824016 0.26060003
0002b0 37 83 98 bc f6 47 58 bc 07 b9 0c 3c dd 6f bd bb
       -0.018617256 -0.013200751 0.008589036 -0.0057811574
0002c0 eb 6d 3a bc 65 af 95 3c 42 06 ff 3c ac d4 06 bc
       -0.011378746 0.018272111 0.031130914 -0.008229416
0002d0 64 c0 fe ba 06 47 a2 bb f6 41 1e bf f3 4d a4 bc
       -0.0019435999 -0.0049523143 -0.618194 -0.0200567
0002e0 4e b3 88 bc 42 78 be 3a 39 6c 11 bc 04 62 27 bc
       -0.016687062 0.0014531689 -0.0088759 -0.01021624
0002f0 e3 4f df 3c 8d 85 04 be 8a ac a6 3a f9 5d b2 3c
       0.027259773 -0.1294157 0.0012716216 0.021773325
000300 55 e2 9b 3a da f4 59 3c 99 b4 b7 ba 27 ee ca bc
       0.0011893014 0.013303006 -0.0014015614 -0.024771763
000310 84 d2 84 bc 21 86 93 3c 8a 3e 5c bd 7f ac 42 3c
       -0.016213663 0.018008294 -0.05377058 0.011881947
000320 3a 3d 11 bc f5 a3 36 bc 5c 4b 75 3b dc dd f0 3c
       -0.008864695 -0.011147489 0.003742895 0.029402666
000330 bf 4b 36 3d a7 79 cc 3b df fa 06 3d e1 fa 08 bc
       0.04450583 0.006240088 0.032954093 -0.008360595
000340 f6 a9 0c bd 81 91 48 bd 4d 7e f4 3a 3a 6f e2 bc
       -0.034341775 -0.04896689 0.0018653363 -0.027640928
000350 91 31 02 bc 90 30 da bb 00 91 08 bd 28 39 75 bb
       -0.007946388 -0.006658621 -0.033341408 -0.00374181
000360 86 cf 0d bb 07 2b c2 bb ba 89 0a 3d 47 10 97 bc
       -0.0021638586 -0.0059255394 0.033822753 -0.018440379
000370 b0 04 7d 3c fe f5 c1 bb 97 3b 21 bc a0 51 ec bc
       0.015443012 -0.005919217 -0.0098408675 -0.028847516
000380 8d be c8 3c 18 d5 0b 3b 6c 3b 16 bc 72 48 2d 3d
       0.024504924 0.002133673 -0.009169441 0.042305417
000390 e8 d1 6d bc ed 2f 2b bd 6a 27 fc 3c 6e 3c b7 bc
       -0.014515378 -0.041793752 0.030780513 -0.022367682
0003a0 be a6 27 bc 39 8b 0e bb eb 8d 89 3d 82 1a 9d bc
       -0.0102326255 -0.0021750464 0.06716522 -0.019177679
0003b0 85 2e 13 bc dd 52 5a 3a fc f5 25 bc 0e 1e 29 bc
       -0.008983259 0.00083283876 -0.010129448 -0.010322107
0003c0 43 51 2c bd c5 9f 9f bc b1 b8 0e bc 4d e6 93 bc
       -0.042069685 -0.019485364 -0.008711026 -0.018054152
0003d0 3a 1b e7 bc 13 6f 22 bc 08 4b e6 bb f3 ac 4b bc
       -0.028211225 -0.0099141775 -0.0070279874 -0.012431371
0003e0 7d 70 05 bc e7 5d 79 bc 46 cd 4f 3c 0c b2 1e bc
       -0.008144495 -0.015220142 0.012683218 -0.009686004
0003f0 9b 78 1b bc 6e ec f4 3c 0a 6e 9e bb e4 e6 0f 39
       -0.009489204 0.029897895 -0.004834895 0.00013723556

branch1.weight f4 [64, 256]
000000 d1 fa 24 3e a1 52 b8 3c 5f ff d1 3b de 75 d2 bd
       0.16111304 0.022500338 0.0064086164 -0.10276388
000010 b1 93 16 bc d2 44 26 bd a7 e1 58 bd af a6 fc b8
       -0.009190486 -0.040592976 -0.052949574 -0.000120473436
000020 23 32 92 bb aa cf 64 ba 86 55 b9 3b 70 96 f4 bc
       -0.004461543 -0.0008728454 0.005655947 -0.02985689
000030 d3 73 78 bb 75 66 41 3a a4 f2 b3 3b 85 df d1 39
       -0.0037910833 0.0007377633 0.0054915715 0.0004003012
000040 11 2f cb 3d 36 1c f5 bc 82 1b 3c 3c 89 9d ca 3b
       0.099210866 -0.029920679 0.011481168 0.0061833304
000050 97 d3 c1 ba d5 dc 7b bd 53 5e 77 39 39 91 33 bc
       -0.001478779 -0.0614899 0.00023590894 -0.010959917
000060 33 11 47 3b 7a a3 a4 3c af 2e f2 3b 07 b6 86 3b
       0.0030375242 0.020097483 0.007390819 0.004111055
000070 5f ec 6b bd 9e 22 fd 3b b1 04 a5 b9 50 f2 e9 bd
       -0.057598468 0.007725074 -0.00031474748 -0.114231706
000080 3f b1 f1 bb cb 3f 20 3d 79 8f 05 3c d5 56 38 bc
       -0.0073758657 0.039123338 0.008151882 -0.011251171
000090 cb 18 22 ba d8 24 75 3b cb 15 a0 3c 4c 81 78 3d
       -0.0006183504 0.0037405994 0.019541642 0.060670182
0000a0 9e c2 2f bc fa 35 83 bb 24 52 19 3d 07 53 8b 3d
       -0.010727553 -0.0040042372 0.03743185 0.068029456
0000b0 72 6c c5 bb c7 14 7e 3d 06 a5 be 3d b7 06 b0 3c
       -0.0060248906 0.062031534 0.093088195 0.021487577
0000c0 33 bb 55 bd b3 0b 8f bc 7c e8 0d 3c f6 0d 3c 3c
       -0.05218048 -0.017461633 0.008661386 0.011477938
0000d0 83 28 3d bb 12 5a c9 3c 43 d7 b2 bc 58 0d 9d bd
       -0.0028863258 0.024579082 -0.02183116 -0.07668561
0000e0 dd cb 28 bc 79 a6 bd 3b 50 6e 97 bd b0 9e a2 bd
       -0.010302511 0.0057876674 -0.07394087 -0.079404235
0000f0 29 6b e3 b9 cc 03 34 3c 68 ac c7 3c 4a 2f 28 3b
       -0.00043376655 0.010987233 0.024374202 0.0025662952
000100 d8 63 55 3c 76 eb 79 bc 84 d8 b1 3d dd e8 92 bc
       0.013024293 -0.015253892 0.08683875 -0.017933303
000110 39 7a 8f 3c 02 64 ed bc bf db a6 3b 6f c6 89 3b
       0.017514335 -0.028978352 0.0050921137 0.0042045633
000120 63 af b9 3b f2 32 fe bc 24 1b 80 3c 1a ae 75 3c
       0.0056666597 -0.031030152 0.015637942 0.014995122
000130 58 e9 ab 3c a0 3a 85 3c ac 4b d2 3b bf 75 85 bc
       0.02098529 0.016263306 0.006417712 -0.016291497
000140 28 98 e1 bc 70 ee 39 3a ee d3 3c 3b ab 14 72 bd
       -0.027538374 0.000709272 0.0028812843 -0.05910174
000150 d0 17 a3 3b d4 0a c6 3b 98 4c 79 3c 4d 7d 1f 3b
       0.004977204 0.0060437713 0.015216015 0.002433616
000160 e5 86 7e bc 14 c7 96 bd 04 de d1 bd 65 5a 97 3c
       -0.015535091 -0.0736219 -0.10247424 0.01847572
000170 79 6b be bd f7 b7 3a 3b 01 c9 62 3d 80 56 d6 3c
       -0.092978425 0.0028491 0.055367474 0.026164293
000180 42 7e d6 3b 9c 90 cc bc 59 55 d9 3b df 72 dc ba
       0.006545813 -0.024971299 0.0066324887 -0.0016818902
000190 e7 7c 11 3b e4 ca 0b bc 39 96 e3 3c e3 90 fa 38
       0.0022199692 -0.00853226 0.027781593 0.00011947916
0001a0 90 86 ef ba ad c4 4c be 35 09 d6 3c 61 e1 1c 3b
       -0.0018274356 -0.19996901 0.026127437 0.0023938047
0001b0 8e d0 b6 bc 5b d5 b4 bb f7 fd 15 bc 6b 19 08 3d
       -0.022316243 -0.005518598 -0.009154788 0.033227365
0001c0 43 38 96 bc 8c d1 39 3c f5 b6 1e 3c ba ed 89 bc
       -0.018337375 0.011341464 0.009687175 -0.01683699
0001d0 b0 02 c8 ba a7 0d 39 bd af 4a 6e bb 4f 36 47 3d
       -0.001525959 -0.045179036 -0.0036360433 0.048635777
0001e0 6d 7f c0 bb cc 63 4e 3c af 5c 12 3e b4 99 43 3d
       -0.0058745653 0.012597036 0.14293168 0.047754005
0001f0 4c 61 30 bd 44 c1 89 3d bb e0 36 3b 55 53 b9 3b
       -0.04306154 0.067263156 0.0027904946 0.005655686
000200 5b 6b d9 3b f1 12 fc bb f9 ac 2f bc 23 0f d2 3b
       0.006635112 -0.0076926877 -0.010722392 0.006410496
000210 bd 86 86 3c f7 21 10 3c d4 03 c3 bd be 5b d4 3b
       0.01642167 0.00879716 -0.095222145 0.006480663
000220 9b 7d 4e bb 22 58 22 39 4d b8 31 bc 5b 98 c7 bb
       -0.0031507972 0.00015482356 -0.010847163 -0.0060911602
000230 6c ce cf bb b4 7a cb bb 8f 01 b3 bb b1 15 1b bd
       -0.006341746 -0.0062096957 -0.0054628323 -0.037862483
000240 57 4f 94 bb 8f ce c6 3b 0e e2 0d 3e 04 13 b7 3c
       -0.0045260596 0.006067104 0.13855764 0.022347935
000250 5d 5b 79 3b 31 05 8f ba 89 8f 14 3c ff 6e ad 3b
       0.0038048842 -0.0010911581 0.009067425 0.005292773
000260 05 fb 41 bc c9 6d 0e bd 88 b8 39 bc e9 cb bf 3b
       -0.011839633 -0.034772668 -0.0113355 0.0058531654
000270 cc 0b 4f 3c f2 3c 5e 3d c1 59 93 bc 9f da 46 3e
       0.01263709 0.05425734 -0.017987134 0.19419335
000280 b2 65 00 bc ae 71 bd 3b 6f 1c 36 ba 85 01 04 3c
       -0.007836746 0.005781374 -0.0006946986 0.008057003
000290 0d f5 bb ba c6 fb 16 ba 0b 62 b9 bc 4c 36 28 bd
       -0.0014339999 -0.0005759563 -0.022629758 -0.041067407
0002a0 89 11 76 3d f6 7a 6c b9 9c 7d 7f 3d 00 e0 4a bc
       0.060075317 -0.0002255252 0.06237565 -0.012382507
0002b0 63 e8 8a bb 42 14 7c 3c a1 41 fb bd a7 08 0e 3d
       -0.0042391284 0.015385689 -0.12268377 0.03467622
0002c0 a5 eb e2 3b 1b 3b 53 bb 00 0d 8e bd 3d 98 f4 ba
       0.0069250637 -0.0032231275 -0.06936073 -0.0018661093
0002d0 f7 6f 35 3b 2b b5 cd 3b bb 37 05 3d 64 0b 84 bd
       0.0027685144 0.0062777004 0.03252385 -0.06447485
0002e0 c6 8a d9 ba 3c 8f d3 3b e0 22 bc 38 64 95 ed bb
       -0.0016597144 0.006456284 8.9710345e-05 -0.0072504748
0002f0 74 9d 09 39 9e e7 3e 3e af 62 6f bc 4d 8d e7 bc
       0.00013123994 0.18643042 -0.01461093 -0.02826562
000300 fc dd 35 3d 43 2c a9 3d 6f a8 97 bc d5 e1 38 bd
       0.044401154 0.082603954 -0.018512933 -0.045137245
000310 77 53 80 bb 6a 75 43 3b af 0f fc bb 27 dc 25 bd
       -0.0039162 0.0029824623 -0.0076922993 -0.040493157
000320 b5 91 b6 bb 72 db c1 3c 58 94 b4 bb 69 20 29 bc
       -0.005571569 0.02366421 -0.005510848 -0.010322669
000330 07 f0 c7 3d d2 ea 11 bd 2a ff bd bc 2d ce 19 3d
       0.097625785 -0.035624333 -0.02319296 0.03755014
000340 6f 78 b6 bc 6b a7 ca 3c 31 8f 69 ba f2 54 fc bc
       -0.022274224 0.024738034 -0.0008909582 -0.030802224
000350 1b d5 7d bb fc 7d 24 bc 47 e3 9b 3d 91 30 c4 3b
       -0.0038731757 -0.010039803 0.07611709 0.005987235
000360 d5 13 c4 bb 6c 41 8d 3b 20 b4 b4 3c ee a2 5a 3c
       -0.0059838095 0.0043107774 0.022058547 0.0133445095
000370 f7 b0 5a bd 12 2f f3 bb 0e 2a 55 bc 3d 1d 7f bc
       -0.053391423 -0.0074213827 -0.013010515 -0.015570936
000380 ea ef 8d bd f4 8a 01 be 0f d5 5d 3a e9 0b c7 bc
       -0.069305256 -0.12650663 0.0008462229 -0.024297671
000390 e3 ed ac ba ca f3 c0 3d c1 11 2f bd 39 94 df 3b
       -0.0013193454 0.09421499 -0.04274154 0.0068230894
0003a0 74 37 3f bc 7a 37 09 3d fa 50 ac bc 1c 1d c1 b9
       -0.011670936 0.033500172 -0.021034706 -0.00036833517
0003b0 3a 52 88 bc 21 63 b8 ba 79 21 69 bc d8 8b 53 3c
       -0.016640771 -0.0014067629 -0.014229172 0.012911759
0003c0 26 a0 f9 3c 81 64 3b 3c 4f e6 77 3d d6 45 d1 3b
       0.030471873 0.011437536 0.060522374 0.006386499
0003d0 27 24 1a bc 9b 55 99 3a d8 76 d4 bb 5e 9d 58 3c
       -0.009408033 0.0011698486 -0.006483894 0.013221113
0003e0 5d e2 1b 3c 87 b0 25 bd 74 13 0b bd 9b da 6e bb
       0.009514418 -0.040451553 -0.0339541 -0.0036446217
0003f0 d4 7c 05 bc 9b 0c c7 bc 1f 79 a8 3b c9 eb 00 bc
       -0.008147437 -0.024298003 0.005141392 -0.007868716

branch1.bias f4 [64]
000000 89 54 83 3d e5 e4 28 bc 2e 55 72 3d 10 57 7d 3c
       0.06412608 -0.010308479 0.059163265 0.015462652
000010 e4 b6 b2 bc c2 5f 0f 3d ff 1d 56 bc 7b 36 5a 3d
       -0.021815725 0.03500343 -0.013068675 0.053274613
000020 e5 a9 43 3d 3b 50 9c 3c 5b 0c 35 bc 8c 9e ce 3c
       0.047769446 0.019081226 -0.011050309 0.025222085
000030 0e f0 a8 3b 9d bb 1c 3c 8d 79 2b 3c 2b 64 dd bb
       0.00515557 0.009566215 0.010465992 -0.0067563257
000040 68 98 f3 3d 82 1f f0 bd 39 f6 76 3c 0c a7 95 3d
       0.118943036 -0.1172476 0.0150733525 0.07307252
000050 26 86 52 3d ac 9f 12 3b 21 3f 77 3c 6f 9f 87 bb
       0.051397465 0.0022373004 0.015090735 -0.004138879
000060 7d 3e 2f 3d 79 87 87 3d 4b 21 3e bd 69 c2 34 bc
       0.042784203 0.06617636 -0.04641847 -0.011032679
000070 4a 8f f2 bd 7c 44 b4 3a 4b db 67 3c 94 f2 19 bd
       -0.118437365 0.001375332 0.014151405 -0.037584856
000080 3c 8a 12 bc db 8b 5e 3d 03 a8 69 3d 10 60 dd 3d
       -0.00894409 0.054332595 0.057044994 0.10809338
000090 c2 e3 80 bd 2e fe 49 bd 36 f0 9f 3b fc d5 80 bb
       -0.06293441 -0.04931467 0.0048809303 -0.003931759
0000a0 86 58 17 bd b3 53 58 bd 29 2a f8 3a d3 4f 0b 3b
       -0.036949657 -0.052814197 0.0018933463 0.0021257296
0000b0 77 d8 e3 3b 01 03 f0 3c 80 f5 03 3d 24 4a 88 bd
       0.006953295 0.029298307 0.03221655 -0.06654766
0000c0 53 d6 fb bc bf 6f 9e bb 44 a1 3e 3b 31 94 97 bd
       -0.030741846 -0.0048350985 0.002908782 -0.07401312
0000d0 7c 48 b8 bd f4 e7 ff ba a1 18 aa bc fa bb 32 3c
       -0.089982 -0.0019524083 -0.020763697 0.010909075
0000e0 42 c7 1e 3c 0f e6 d0 ba 1e 50 f6 3b cb e6 41 3e
       0.009691061 -0.0015937703 0.007516875 0.18935697
0000f0 c6 9b 23 3d 30 ab 4c ba 0e 35 df bb 41 bd 75 bd
       0.03994348 -0.00078074913 -0.0068117445 -0.05999494
